name: "BN-Inception"
layer {
  name: "data"
  type: "VideoData"
  top: "data"
  top: "label"
  video_data_param {
    source: "/home/peiyong/Data/ucf101/listUtils/ucf_ims/train_split1.txt"
    batch_size: 16
    new_length: 1
    num_segments: 3
    modality: RGB
    shuffle: true
    name_pattern: "frame%04d.jpg"
  }
  transform_param{
    crop_size: 224
    mirror: true
    fix_crop: true
    more_fix_crop: true
    multi_scale: true
    max_distort: 1
    scale_ratios:[1,.875,.75, .66]
    is_flow: false
    mean_value: [104, 117, 123, 104, 117, 123,104, 117, 123]
  }
  include: { phase: TRAIN }
}
layer {
  name: "data"
  type: "VideoData"
  top: "data"
  top: "label"
  video_data_param {
    source: "/home/peiyong/Data/ucf101/listUtils/ucf_ims/valid_split1.txt"
    batch_size: 16
    new_length: 1
    num_segments: 3
    modality: RGB
    name_pattern: "frame%04d.jpg"
  }
  transform_param{
    crop_size: 224
    mirror: false
    mean_value: [104, 117, 123, 104, 117, 123,104, 117, 123]
  }
  include: { phase: TEST }
}
layer { name: "reshape_data" type: "Reshape" bottom: "data" top: "reshape_data" reshape_param { shape { dim: -1 dim: 3 dim: 224 dim: 224 } } }
layer {name: "ECOC_label" type:"Python" bottom:"label" top:"ECOC_label" python_param {module:'ECOC_v1' layer: 'ECOCLayer'
       param_str : "{\'num_Cls\':1000}"}}

layer {name:"Slice_ECOC" type:"Slice" bottom:"ECOC_label"  top:"ECOC0" top:"ECOC1" top:"ECOC2" top:"ECOC3" top:"ECOC4" top:"ECOC5" top:"ECOC6" top:"ECOC7" top:"ECOC8" top:"ECOC9" top:"ECOC10" top:"ECOC11" top:"ECOC12" top:"ECOC13" top:"ECOC14" top:"ECOC15" top:"ECOC16" top:"ECOC17" top:"ECOC18" top:"ECOC19" top:"ECOC20" top:"ECOC21" top:"ECOC22" top:"ECOC23" top:"ECOC24" top:"ECOC25" top:"ECOC26" top:"ECOC27" top:"ECOC28" top:"ECOC29" top:"ECOC30" top:"ECOC31" top:"ECOC32" top:"ECOC33" top:"ECOC34" top:"ECOC35" top:"ECOC36" top:"ECOC37" top:"ECOC38" top:"ECOC39" top:"ECOC40" top:"ECOC41" top:"ECOC42" top:"ECOC43" top:"ECOC44" top:"ECOC45" top:"ECOC46" top:"ECOC47" top:"ECOC48" top:"ECOC49" top:"ECOC50" top:"ECOC51" top:"ECOC52" top:"ECOC53" top:"ECOC54" top:"ECOC55" top:"ECOC56" top:"ECOC57" top:"ECOC58" top:"ECOC59" top:"ECOC60" top:"ECOC61" top:"ECOC62" top:"ECOC63" top:"ECOC64" top:"ECOC65" top:"ECOC66" top:"ECOC67" top:"ECOC68" top:"ECOC69" top:"ECOC70" top:"ECOC71" top:"ECOC72" top:"ECOC73" top:"ECOC74" top:"ECOC75" top:"ECOC76" top:"ECOC77" top:"ECOC78" top:"ECOC79" top:"ECOC80" top:"ECOC81" top:"ECOC82" top:"ECOC83" top:"ECOC84" top:"ECOC85" top:"ECOC86" top:"ECOC87" top:"ECOC88" top:"ECOC89" top:"ECOC90" top:"ECOC91" top:"ECOC92" top:"ECOC93" top:"ECOC94" top:"ECOC95" top:"ECOC96" top:"ECOC97" top:"ECOC98" top:"ECOC99" top:"ECOC100" top:"ECOC101" top:"ECOC102" top:"ECOC103" top:"ECOC104" top:"ECOC105" top:"ECOC106" top:"ECOC107" top:"ECOC108" top:"ECOC109" top:"ECOC110" top:"ECOC111" top:"ECOC112" top:"ECOC113" top:"ECOC114" top:"ECOC115" top:"ECOC116" top:"ECOC117" top:"ECOC118" top:"ECOC119" top:"ECOC120" top:"ECOC121" top:"ECOC122" top:"ECOC123" top:"ECOC124" top:"ECOC125" top:"ECOC126" top:"ECOC127" top:"ECOC128" top:"ECOC129" top:"ECOC130" top:"ECOC131" top:"ECOC132" top:"ECOC133" top:"ECOC134" top:"ECOC135" top:"ECOC136" top:"ECOC137" top:"ECOC138" top:"ECOC139" top:"ECOC140" top:"ECOC141" top:"ECOC142" top:"ECOC143" top:"ECOC144" top:"ECOC145" top:"ECOC146" top:"ECOC147" top:"ECOC148" top:"ECOC149" top:"ECOC150" top:"ECOC151" top:"ECOC152" top:"ECOC153" top:"ECOC154" top:"ECOC155" top:"ECOC156" top:"ECOC157" top:"ECOC158" top:"ECOC159" top:"ECOC160" top:"ECOC161" top:"ECOC162" top:"ECOC163" top:"ECOC164" top:"ECOC165" top:"ECOC166" top:"ECOC167" top:"ECOC168" top:"ECOC169" top:"ECOC170" top:"ECOC171" top:"ECOC172" top:"ECOC173" top:"ECOC174" top:"ECOC175" top:"ECOC176" top:"ECOC177" top:"ECOC178" top:"ECOC179" top:"ECOC180" top:"ECOC181" top:"ECOC182" top:"ECOC183" top:"ECOC184" top:"ECOC185" top:"ECOC186" top:"ECOC187" top:"ECOC188" top:"ECOC189" top:"ECOC190" top:"ECOC191" top:"ECOC192" top:"ECOC193" top:"ECOC194" top:"ECOC195" top:"ECOC196" top:"ECOC197" top:"ECOC198" top:"ECOC199" top:"ECOC200" top:"ECOC201" top:"ECOC202" top:"ECOC203" top:"ECOC204" top:"ECOC205" top:"ECOC206" top:"ECOC207" top:"ECOC208" top:"ECOC209" top:"ECOC210" top:"ECOC211" top:"ECOC212" top:"ECOC213" top:"ECOC214" top:"ECOC215" top:"ECOC216" top:"ECOC217" top:"ECOC218" top:"ECOC219" top:"ECOC220" top:"ECOC221" top:"ECOC222" top:"ECOC223" top:"ECOC224" top:"ECOC225" top:"ECOC226" top:"ECOC227" top:"ECOC228" top:"ECOC229" top:"ECOC230" top:"ECOC231" top:"ECOC232" top:"ECOC233" top:"ECOC234" top:"ECOC235" top:"ECOC236" top:"ECOC237" top:"ECOC238" top:"ECOC239" top:"ECOC240" top:"ECOC241" top:"ECOC242" top:"ECOC243" top:"ECOC244" top:"ECOC245" top:"ECOC246" top:"ECOC247" top:"ECOC248" top:"ECOC249" top:"ECOC250" top:"ECOC251" top:"ECOC252" top:"ECOC253" top:"ECOC254" top:"ECOC255" top:"ECOC256" top:"ECOC257" top:"ECOC258" top:"ECOC259" top:"ECOC260" top:"ECOC261" top:"ECOC262" top:"ECOC263" top:"ECOC264" top:"ECOC265" top:"ECOC266" top:"ECOC267" top:"ECOC268" top:"ECOC269" top:"ECOC270" top:"ECOC271" top:"ECOC272" top:"ECOC273" top:"ECOC274" top:"ECOC275" top:"ECOC276" top:"ECOC277" top:"ECOC278" top:"ECOC279" top:"ECOC280" top:"ECOC281" top:"ECOC282" top:"ECOC283" top:"ECOC284" top:"ECOC285" top:"ECOC286" top:"ECOC287" top:"ECOC288" top:"ECOC289" top:"ECOC290" top:"ECOC291" top:"ECOC292" top:"ECOC293" top:"ECOC294" top:"ECOC295" top:"ECOC296" top:"ECOC297" top:"ECOC298" top:"ECOC299" top:"ECOC300" top:"ECOC301" top:"ECOC302" top:"ECOC303" top:"ECOC304" top:"ECOC305" top:"ECOC306" top:"ECOC307" top:"ECOC308" top:"ECOC309" top:"ECOC310" top:"ECOC311" top:"ECOC312" top:"ECOC313" top:"ECOC314" top:"ECOC315" top:"ECOC316" top:"ECOC317" top:"ECOC318" top:"ECOC319" top:"ECOC320" top:"ECOC321" top:"ECOC322" top:"ECOC323" top:"ECOC324" top:"ECOC325" top:"ECOC326" top:"ECOC327" top:"ECOC328" top:"ECOC329" top:"ECOC330" top:"ECOC331" top:"ECOC332" top:"ECOC333" top:"ECOC334" top:"ECOC335" top:"ECOC336" top:"ECOC337" top:"ECOC338" top:"ECOC339" top:"ECOC340" top:"ECOC341" top:"ECOC342" top:"ECOC343" top:"ECOC344" top:"ECOC345" top:"ECOC346" top:"ECOC347" top:"ECOC348" top:"ECOC349" top:"ECOC350" top:"ECOC351" top:"ECOC352" top:"ECOC353" top:"ECOC354" top:"ECOC355" top:"ECOC356" top:"ECOC357" top:"ECOC358" top:"ECOC359" top:"ECOC360" top:"ECOC361" top:"ECOC362" top:"ECOC363" top:"ECOC364" top:"ECOC365" top:"ECOC366" top:"ECOC367" top:"ECOC368" top:"ECOC369" top:"ECOC370" top:"ECOC371" top:"ECOC372" top:"ECOC373" top:"ECOC374" top:"ECOC375" top:"ECOC376" top:"ECOC377" top:"ECOC378" top:"ECOC379" top:"ECOC380" top:"ECOC381" top:"ECOC382" top:"ECOC383" top:"ECOC384" top:"ECOC385" top:"ECOC386" top:"ECOC387" top:"ECOC388" top:"ECOC389" top:"ECOC390" top:"ECOC391" top:"ECOC392" top:"ECOC393" top:"ECOC394" top:"ECOC395" top:"ECOC396" top:"ECOC397" top:"ECOC398" top:"ECOC399" top:"ECOC400" top:"ECOC401" top:"ECOC402" top:"ECOC403" top:"ECOC404" top:"ECOC405" top:"ECOC406" top:"ECOC407" top:"ECOC408" top:"ECOC409" top:"ECOC410" top:"ECOC411" top:"ECOC412" top:"ECOC413" top:"ECOC414" top:"ECOC415" top:"ECOC416" top:"ECOC417" top:"ECOC418" top:"ECOC419" top:"ECOC420" top:"ECOC421" top:"ECOC422" top:"ECOC423" top:"ECOC424" top:"ECOC425" top:"ECOC426" top:"ECOC427" top:"ECOC428" top:"ECOC429" top:"ECOC430" top:"ECOC431" top:"ECOC432" top:"ECOC433" top:"ECOC434" top:"ECOC435" top:"ECOC436" top:"ECOC437" top:"ECOC438" top:"ECOC439" top:"ECOC440" top:"ECOC441" top:"ECOC442" top:"ECOC443" top:"ECOC444" top:"ECOC445" top:"ECOC446" top:"ECOC447" top:"ECOC448" top:"ECOC449" top:"ECOC450" top:"ECOC451" top:"ECOC452" top:"ECOC453" top:"ECOC454" top:"ECOC455" top:"ECOC456" top:"ECOC457" top:"ECOC458" top:"ECOC459" top:"ECOC460" top:"ECOC461" top:"ECOC462" top:"ECOC463" top:"ECOC464" top:"ECOC465" top:"ECOC466" top:"ECOC467" top:"ECOC468" top:"ECOC469" top:"ECOC470" top:"ECOC471" top:"ECOC472" top:"ECOC473" top:"ECOC474" top:"ECOC475" top:"ECOC476" top:"ECOC477" top:"ECOC478" top:"ECOC479" top:"ECOC480" top:"ECOC481" top:"ECOC482" top:"ECOC483" top:"ECOC484" top:"ECOC485" top:"ECOC486" top:"ECOC487" top:"ECOC488" top:"ECOC489" top:"ECOC490" top:"ECOC491" top:"ECOC492" top:"ECOC493" top:"ECOC494" top:"ECOC495" top:"ECOC496" top:"ECOC497" top:"ECOC498" top:"ECOC499" top:"ECOC500" top:"ECOC501" top:"ECOC502" top:"ECOC503" top:"ECOC504" top:"ECOC505" top:"ECOC506" top:"ECOC507" top:"ECOC508" top:"ECOC509" top:"ECOC510" top:"ECOC511" top:"ECOC512" top:"ECOC513" top:"ECOC514" top:"ECOC515" top:"ECOC516" top:"ECOC517" top:"ECOC518" top:"ECOC519" top:"ECOC520" top:"ECOC521" top:"ECOC522" top:"ECOC523" top:"ECOC524" top:"ECOC525" top:"ECOC526" top:"ECOC527" top:"ECOC528" top:"ECOC529" top:"ECOC530" top:"ECOC531" top:"ECOC532" top:"ECOC533" top:"ECOC534" top:"ECOC535" top:"ECOC536" top:"ECOC537" top:"ECOC538" top:"ECOC539" top:"ECOC540" top:"ECOC541" top:"ECOC542" top:"ECOC543" top:"ECOC544" top:"ECOC545" top:"ECOC546" top:"ECOC547" top:"ECOC548" top:"ECOC549" top:"ECOC550" top:"ECOC551" top:"ECOC552" top:"ECOC553" top:"ECOC554" top:"ECOC555" top:"ECOC556" top:"ECOC557" top:"ECOC558" top:"ECOC559" top:"ECOC560" top:"ECOC561" top:"ECOC562" top:"ECOC563" top:"ECOC564" top:"ECOC565" top:"ECOC566" top:"ECOC567" top:"ECOC568" top:"ECOC569" top:"ECOC570" top:"ECOC571" top:"ECOC572" top:"ECOC573" top:"ECOC574" top:"ECOC575" top:"ECOC576" top:"ECOC577" top:"ECOC578" top:"ECOC579" top:"ECOC580" top:"ECOC581" top:"ECOC582" top:"ECOC583" top:"ECOC584" top:"ECOC585" top:"ECOC586" top:"ECOC587" top:"ECOC588" top:"ECOC589" top:"ECOC590" top:"ECOC591" top:"ECOC592" top:"ECOC593" top:"ECOC594" top:"ECOC595" top:"ECOC596" top:"ECOC597" top:"ECOC598" top:"ECOC599" top:"ECOC600" top:"ECOC601" top:"ECOC602" top:"ECOC603" top:"ECOC604" top:"ECOC605" top:"ECOC606" top:"ECOC607" top:"ECOC608" top:"ECOC609" top:"ECOC610" top:"ECOC611" top:"ECOC612" top:"ECOC613" top:"ECOC614" top:"ECOC615" top:"ECOC616" top:"ECOC617" top:"ECOC618" top:"ECOC619" top:"ECOC620" top:"ECOC621" top:"ECOC622" top:"ECOC623" top:"ECOC624" top:"ECOC625" top:"ECOC626" top:"ECOC627" top:"ECOC628" top:"ECOC629" top:"ECOC630" top:"ECOC631" top:"ECOC632" top:"ECOC633" top:"ECOC634" top:"ECOC635" top:"ECOC636" top:"ECOC637" top:"ECOC638" top:"ECOC639" top:"ECOC640" top:"ECOC641" top:"ECOC642" top:"ECOC643" top:"ECOC644" top:"ECOC645" top:"ECOC646" top:"ECOC647" top:"ECOC648" top:"ECOC649" top:"ECOC650" top:"ECOC651" top:"ECOC652" top:"ECOC653" top:"ECOC654" top:"ECOC655" top:"ECOC656" top:"ECOC657" top:"ECOC658" top:"ECOC659" top:"ECOC660" top:"ECOC661" top:"ECOC662" top:"ECOC663" top:"ECOC664" top:"ECOC665" top:"ECOC666" top:"ECOC667" top:"ECOC668" top:"ECOC669" top:"ECOC670" top:"ECOC671" top:"ECOC672" top:"ECOC673" top:"ECOC674" top:"ECOC675" top:"ECOC676" top:"ECOC677" top:"ECOC678" top:"ECOC679" top:"ECOC680" top:"ECOC681" top:"ECOC682" top:"ECOC683" top:"ECOC684" top:"ECOC685" top:"ECOC686" top:"ECOC687" top:"ECOC688" top:"ECOC689" top:"ECOC690" top:"ECOC691" top:"ECOC692" top:"ECOC693" top:"ECOC694" top:"ECOC695" top:"ECOC696" top:"ECOC697" top:"ECOC698" top:"ECOC699" top:"ECOC700" top:"ECOC701" top:"ECOC702" top:"ECOC703" top:"ECOC704" top:"ECOC705" top:"ECOC706" top:"ECOC707" top:"ECOC708" top:"ECOC709" top:"ECOC710" top:"ECOC711" top:"ECOC712" top:"ECOC713" top:"ECOC714" top:"ECOC715" top:"ECOC716" top:"ECOC717" top:"ECOC718" top:"ECOC719" top:"ECOC720" top:"ECOC721" top:"ECOC722" top:"ECOC723" top:"ECOC724" top:"ECOC725" top:"ECOC726" top:"ECOC727" top:"ECOC728" top:"ECOC729" top:"ECOC730" top:"ECOC731" top:"ECOC732" top:"ECOC733" top:"ECOC734" top:"ECOC735" top:"ECOC736" top:"ECOC737" top:"ECOC738" top:"ECOC739" top:"ECOC740" top:"ECOC741" top:"ECOC742" top:"ECOC743" top:"ECOC744" top:"ECOC745" top:"ECOC746" top:"ECOC747" top:"ECOC748" top:"ECOC749" top:"ECOC750" top:"ECOC751" top:"ECOC752" top:"ECOC753" top:"ECOC754" top:"ECOC755" top:"ECOC756" top:"ECOC757" top:"ECOC758" top:"ECOC759" top:"ECOC760" top:"ECOC761" top:"ECOC762" top:"ECOC763" top:"ECOC764" top:"ECOC765" top:"ECOC766" top:"ECOC767" top:"ECOC768" top:"ECOC769" top:"ECOC770" top:"ECOC771" top:"ECOC772" top:"ECOC773" top:"ECOC774" top:"ECOC775" top:"ECOC776" top:"ECOC777" top:"ECOC778" top:"ECOC779" top:"ECOC780" top:"ECOC781" top:"ECOC782" top:"ECOC783" top:"ECOC784" top:"ECOC785" top:"ECOC786" top:"ECOC787" top:"ECOC788" top:"ECOC789" top:"ECOC790" top:"ECOC791" top:"ECOC792" top:"ECOC793" top:"ECOC794" top:"ECOC795" top:"ECOC796" top:"ECOC797" top:"ECOC798" top:"ECOC799" top:"ECOC800" top:"ECOC801" top:"ECOC802" top:"ECOC803" top:"ECOC804" top:"ECOC805" top:"ECOC806" top:"ECOC807" top:"ECOC808" top:"ECOC809" top:"ECOC810" top:"ECOC811" top:"ECOC812" top:"ECOC813" top:"ECOC814" top:"ECOC815" top:"ECOC816" top:"ECOC817" top:"ECOC818" top:"ECOC819" top:"ECOC820" top:"ECOC821" top:"ECOC822" top:"ECOC823" top:"ECOC824" top:"ECOC825" top:"ECOC826" top:"ECOC827" top:"ECOC828" top:"ECOC829" top:"ECOC830" top:"ECOC831" top:"ECOC832" top:"ECOC833" top:"ECOC834" top:"ECOC835" top:"ECOC836" top:"ECOC837" top:"ECOC838" top:"ECOC839" top:"ECOC840" top:"ECOC841" top:"ECOC842" top:"ECOC843" top:"ECOC844" top:"ECOC845" top:"ECOC846" top:"ECOC847" top:"ECOC848" top:"ECOC849" top:"ECOC850" top:"ECOC851" top:"ECOC852" top:"ECOC853" top:"ECOC854" top:"ECOC855" top:"ECOC856" top:"ECOC857" top:"ECOC858" top:"ECOC859" top:"ECOC860" top:"ECOC861" top:"ECOC862" top:"ECOC863" top:"ECOC864" top:"ECOC865" top:"ECOC866" top:"ECOC867" top:"ECOC868" top:"ECOC869" top:"ECOC870" top:"ECOC871" top:"ECOC872" top:"ECOC873" top:"ECOC874" top:"ECOC875" top:"ECOC876" top:"ECOC877" top:"ECOC878" top:"ECOC879" top:"ECOC880" top:"ECOC881" top:"ECOC882" top:"ECOC883" top:"ECOC884" top:"ECOC885" top:"ECOC886" top:"ECOC887" top:"ECOC888" top:"ECOC889" top:"ECOC890" top:"ECOC891" top:"ECOC892" top:"ECOC893" top:"ECOC894" top:"ECOC895" top:"ECOC896" top:"ECOC897" top:"ECOC898" top:"ECOC899" top:"ECOC900" top:"ECOC901" top:"ECOC902" top:"ECOC903" top:"ECOC904" top:"ECOC905" top:"ECOC906" top:"ECOC907" top:"ECOC908" top:"ECOC909" top:"ECOC910" top:"ECOC911" top:"ECOC912" top:"ECOC913" top:"ECOC914" top:"ECOC915" top:"ECOC916" top:"ECOC917" top:"ECOC918" top:"ECOC919" top:"ECOC920" top:"ECOC921" top:"ECOC922" top:"ECOC923" top:"ECOC924" top:"ECOC925" top:"ECOC926" top:"ECOC927" top:"ECOC928" top:"ECOC929" top:"ECOC930" top:"ECOC931" top:"ECOC932" top:"ECOC933" top:"ECOC934" top:"ECOC935" top:"ECOC936" top:"ECOC937" top:"ECOC938" top:"ECOC939" top:"ECOC940" top:"ECOC941" top:"ECOC942" top:"ECOC943" top:"ECOC944" top:"ECOC945" top:"ECOC946" top:"ECOC947" top:"ECOC948" top:"ECOC949" top:"ECOC950" top:"ECOC951" top:"ECOC952" top:"ECOC953" top:"ECOC954" top:"ECOC955" top:"ECOC956" top:"ECOC957" top:"ECOC958" top:"ECOC959" top:"ECOC960" top:"ECOC961" top:"ECOC962" top:"ECOC963" top:"ECOC964" top:"ECOC965" top:"ECOC966" top:"ECOC967" top:"ECOC968" top:"ECOC969" top:"ECOC970" top:"ECOC971" top:"ECOC972" top:"ECOC973" top:"ECOC974" top:"ECOC975" top:"ECOC976" top:"ECOC977" top:"ECOC978" top:"ECOC979" top:"ECOC980" top:"ECOC981" top:"ECOC982" top:"ECOC983" top:"ECOC984" top:"ECOC985" top:"ECOC986" top:"ECOC987" top:"ECOC988" top:"ECOC989" top:"ECOC990" top:"ECOC991" top:"ECOC992" top:"ECOC993" top:"ECOC994" top:"ECOC995" top:"ECOC996" top:"ECOC997" top:"ECOC998" top:"ECOC999"
     slice_param {axis:1 slice_point:1 slice_point:2 slice_point:3 slice_point:4 slice_point:5 slice_point:6 slice_point:7 slice_point:8 slice_point:9 slice_point:10 slice_point:11 slice_point:12 slice_point:13 slice_point:14 slice_point:15 slice_point:16 slice_point:17 slice_point:18 slice_point:19 slice_point:20 slice_point:21 slice_point:22 slice_point:23 slice_point:24 slice_point:25 slice_point:26 slice_point:27 slice_point:28 slice_point:29 slice_point:30 slice_point:31 slice_point:32 slice_point:33 slice_point:34 slice_point:35 slice_point:36 slice_point:37 slice_point:38 slice_point:39 slice_point:40 slice_point:41 slice_point:42 slice_point:43 slice_point:44 slice_point:45 slice_point:46 slice_point:47 slice_point:48 slice_point:49 slice_point:50 slice_point:51 slice_point:52 slice_point:53 slice_point:54 slice_point:55 slice_point:56 slice_point:57 slice_point:58 slice_point:59 slice_point:60 slice_point:61 slice_point:62 slice_point:63 slice_point:64 slice_point:65 slice_point:66 slice_point:67 slice_point:68 slice_point:69 slice_point:70 slice_point:71 slice_point:72 slice_point:73 slice_point:74 slice_point:75 slice_point:76 slice_point:77 slice_point:78 slice_point:79 slice_point:80 slice_point:81 slice_point:82 slice_point:83 slice_point:84 slice_point:85 slice_point:86 slice_point:87 slice_point:88 slice_point:89 slice_point:90 slice_point:91 slice_point:92 slice_point:93 slice_point:94 slice_point:95 slice_point:96 slice_point:97 slice_point:98 slice_point:99 slice_point:100 slice_point:101 slice_point:102 slice_point:103 slice_point:104 slice_point:105 slice_point:106 slice_point:107 slice_point:108 slice_point:109 slice_point:110 slice_point:111 slice_point:112 slice_point:113 slice_point:114 slice_point:115 slice_point:116 slice_point:117 slice_point:118 slice_point:119 slice_point:120 slice_point:121 slice_point:122 slice_point:123 slice_point:124 slice_point:125 slice_point:126 slice_point:127 slice_point:128 slice_point:129 slice_point:130 slice_point:131 slice_point:132 slice_point:133 slice_point:134 slice_point:135 slice_point:136 slice_point:137 slice_point:138 slice_point:139 slice_point:140 slice_point:141 slice_point:142 slice_point:143 slice_point:144 slice_point:145 slice_point:146 slice_point:147 slice_point:148 slice_point:149 slice_point:150 slice_point:151 slice_point:152 slice_point:153 slice_point:154 slice_point:155 slice_point:156 slice_point:157 slice_point:158 slice_point:159 slice_point:160 slice_point:161 slice_point:162 slice_point:163 slice_point:164 slice_point:165 slice_point:166 slice_point:167 slice_point:168 slice_point:169 slice_point:170 slice_point:171 slice_point:172 slice_point:173 slice_point:174 slice_point:175 slice_point:176 slice_point:177 slice_point:178 slice_point:179 slice_point:180 slice_point:181 slice_point:182 slice_point:183 slice_point:184 slice_point:185 slice_point:186 slice_point:187 slice_point:188 slice_point:189 slice_point:190 slice_point:191 slice_point:192 slice_point:193 slice_point:194 slice_point:195 slice_point:196 slice_point:197 slice_point:198 slice_point:199 slice_point:200 slice_point:201 slice_point:202 slice_point:203 slice_point:204 slice_point:205 slice_point:206 slice_point:207 slice_point:208 slice_point:209 slice_point:210 slice_point:211 slice_point:212 slice_point:213 slice_point:214 slice_point:215 slice_point:216 slice_point:217 slice_point:218 slice_point:219 slice_point:220 slice_point:221 slice_point:222 slice_point:223 slice_point:224 slice_point:225 slice_point:226 slice_point:227 slice_point:228 slice_point:229 slice_point:230 slice_point:231 slice_point:232 slice_point:233 slice_point:234 slice_point:235 slice_point:236 slice_point:237 slice_point:238 slice_point:239 slice_point:240 slice_point:241 slice_point:242 slice_point:243 slice_point:244 slice_point:245 slice_point:246 slice_point:247 slice_point:248 slice_point:249 slice_point:250 slice_point:251 slice_point:252 slice_point:253 slice_point:254 slice_point:255 slice_point:256 slice_point:257 slice_point:258 slice_point:259 slice_point:260 slice_point:261 slice_point:262 slice_point:263 slice_point:264 slice_point:265 slice_point:266 slice_point:267 slice_point:268 slice_point:269 slice_point:270 slice_point:271 slice_point:272 slice_point:273 slice_point:274 slice_point:275 slice_point:276 slice_point:277 slice_point:278 slice_point:279 slice_point:280 slice_point:281 slice_point:282 slice_point:283 slice_point:284 slice_point:285 slice_point:286 slice_point:287 slice_point:288 slice_point:289 slice_point:290 slice_point:291 slice_point:292 slice_point:293 slice_point:294 slice_point:295 slice_point:296 slice_point:297 slice_point:298 slice_point:299 slice_point:300 slice_point:301 slice_point:302 slice_point:303 slice_point:304 slice_point:305 slice_point:306 slice_point:307 slice_point:308 slice_point:309 slice_point:310 slice_point:311 slice_point:312 slice_point:313 slice_point:314 slice_point:315 slice_point:316 slice_point:317 slice_point:318 slice_point:319 slice_point:320 slice_point:321 slice_point:322 slice_point:323 slice_point:324 slice_point:325 slice_point:326 slice_point:327 slice_point:328 slice_point:329 slice_point:330 slice_point:331 slice_point:332 slice_point:333 slice_point:334 slice_point:335 slice_point:336 slice_point:337 slice_point:338 slice_point:339 slice_point:340 slice_point:341 slice_point:342 slice_point:343 slice_point:344 slice_point:345 slice_point:346 slice_point:347 slice_point:348 slice_point:349 slice_point:350 slice_point:351 slice_point:352 slice_point:353 slice_point:354 slice_point:355 slice_point:356 slice_point:357 slice_point:358 slice_point:359 slice_point:360 slice_point:361 slice_point:362 slice_point:363 slice_point:364 slice_point:365 slice_point:366 slice_point:367 slice_point:368 slice_point:369 slice_point:370 slice_point:371 slice_point:372 slice_point:373 slice_point:374 slice_point:375 slice_point:376 slice_point:377 slice_point:378 slice_point:379 slice_point:380 slice_point:381 slice_point:382 slice_point:383 slice_point:384 slice_point:385 slice_point:386 slice_point:387 slice_point:388 slice_point:389 slice_point:390 slice_point:391 slice_point:392 slice_point:393 slice_point:394 slice_point:395 slice_point:396 slice_point:397 slice_point:398 slice_point:399 slice_point:400 slice_point:401 slice_point:402 slice_point:403 slice_point:404 slice_point:405 slice_point:406 slice_point:407 slice_point:408 slice_point:409 slice_point:410 slice_point:411 slice_point:412 slice_point:413 slice_point:414 slice_point:415 slice_point:416 slice_point:417 slice_point:418 slice_point:419 slice_point:420 slice_point:421 slice_point:422 slice_point:423 slice_point:424 slice_point:425 slice_point:426 slice_point:427 slice_point:428 slice_point:429 slice_point:430 slice_point:431 slice_point:432 slice_point:433 slice_point:434 slice_point:435 slice_point:436 slice_point:437 slice_point:438 slice_point:439 slice_point:440 slice_point:441 slice_point:442 slice_point:443 slice_point:444 slice_point:445 slice_point:446 slice_point:447 slice_point:448 slice_point:449 slice_point:450 slice_point:451 slice_point:452 slice_point:453 slice_point:454 slice_point:455 slice_point:456 slice_point:457 slice_point:458 slice_point:459 slice_point:460 slice_point:461 slice_point:462 slice_point:463 slice_point:464 slice_point:465 slice_point:466 slice_point:467 slice_point:468 slice_point:469 slice_point:470 slice_point:471 slice_point:472 slice_point:473 slice_point:474 slice_point:475 slice_point:476 slice_point:477 slice_point:478 slice_point:479 slice_point:480 slice_point:481 slice_point:482 slice_point:483 slice_point:484 slice_point:485 slice_point:486 slice_point:487 slice_point:488 slice_point:489 slice_point:490 slice_point:491 slice_point:492 slice_point:493 slice_point:494 slice_point:495 slice_point:496 slice_point:497 slice_point:498 slice_point:499 slice_point:500 slice_point:501 slice_point:502 slice_point:503 slice_point:504 slice_point:505 slice_point:506 slice_point:507 slice_point:508 slice_point:509 slice_point:510 slice_point:511 slice_point:512 slice_point:513 slice_point:514 slice_point:515 slice_point:516 slice_point:517 slice_point:518 slice_point:519 slice_point:520 slice_point:521 slice_point:522 slice_point:523 slice_point:524 slice_point:525 slice_point:526 slice_point:527 slice_point:528 slice_point:529 slice_point:530 slice_point:531 slice_point:532 slice_point:533 slice_point:534 slice_point:535 slice_point:536 slice_point:537 slice_point:538 slice_point:539 slice_point:540 slice_point:541 slice_point:542 slice_point:543 slice_point:544 slice_point:545 slice_point:546 slice_point:547 slice_point:548 slice_point:549 slice_point:550 slice_point:551 slice_point:552 slice_point:553 slice_point:554 slice_point:555 slice_point:556 slice_point:557 slice_point:558 slice_point:559 slice_point:560 slice_point:561 slice_point:562 slice_point:563 slice_point:564 slice_point:565 slice_point:566 slice_point:567 slice_point:568 slice_point:569 slice_point:570 slice_point:571 slice_point:572 slice_point:573 slice_point:574 slice_point:575 slice_point:576 slice_point:577 slice_point:578 slice_point:579 slice_point:580 slice_point:581 slice_point:582 slice_point:583 slice_point:584 slice_point:585 slice_point:586 slice_point:587 slice_point:588 slice_point:589 slice_point:590 slice_point:591 slice_point:592 slice_point:593 slice_point:594 slice_point:595 slice_point:596 slice_point:597 slice_point:598 slice_point:599 slice_point:600 slice_point:601 slice_point:602 slice_point:603 slice_point:604 slice_point:605 slice_point:606 slice_point:607 slice_point:608 slice_point:609 slice_point:610 slice_point:611 slice_point:612 slice_point:613 slice_point:614 slice_point:615 slice_point:616 slice_point:617 slice_point:618 slice_point:619 slice_point:620 slice_point:621 slice_point:622 slice_point:623 slice_point:624 slice_point:625 slice_point:626 slice_point:627 slice_point:628 slice_point:629 slice_point:630 slice_point:631 slice_point:632 slice_point:633 slice_point:634 slice_point:635 slice_point:636 slice_point:637 slice_point:638 slice_point:639 slice_point:640 slice_point:641 slice_point:642 slice_point:643 slice_point:644 slice_point:645 slice_point:646 slice_point:647 slice_point:648 slice_point:649 slice_point:650 slice_point:651 slice_point:652 slice_point:653 slice_point:654 slice_point:655 slice_point:656 slice_point:657 slice_point:658 slice_point:659 slice_point:660 slice_point:661 slice_point:662 slice_point:663 slice_point:664 slice_point:665 slice_point:666 slice_point:667 slice_point:668 slice_point:669 slice_point:670 slice_point:671 slice_point:672 slice_point:673 slice_point:674 slice_point:675 slice_point:676 slice_point:677 slice_point:678 slice_point:679 slice_point:680 slice_point:681 slice_point:682 slice_point:683 slice_point:684 slice_point:685 slice_point:686 slice_point:687 slice_point:688 slice_point:689 slice_point:690 slice_point:691 slice_point:692 slice_point:693 slice_point:694 slice_point:695 slice_point:696 slice_point:697 slice_point:698 slice_point:699 slice_point:700 slice_point:701 slice_point:702 slice_point:703 slice_point:704 slice_point:705 slice_point:706 slice_point:707 slice_point:708 slice_point:709 slice_point:710 slice_point:711 slice_point:712 slice_point:713 slice_point:714 slice_point:715 slice_point:716 slice_point:717 slice_point:718 slice_point:719 slice_point:720 slice_point:721 slice_point:722 slice_point:723 slice_point:724 slice_point:725 slice_point:726 slice_point:727 slice_point:728 slice_point:729 slice_point:730 slice_point:731 slice_point:732 slice_point:733 slice_point:734 slice_point:735 slice_point:736 slice_point:737 slice_point:738 slice_point:739 slice_point:740 slice_point:741 slice_point:742 slice_point:743 slice_point:744 slice_point:745 slice_point:746 slice_point:747 slice_point:748 slice_point:749 slice_point:750 slice_point:751 slice_point:752 slice_point:753 slice_point:754 slice_point:755 slice_point:756 slice_point:757 slice_point:758 slice_point:759 slice_point:760 slice_point:761 slice_point:762 slice_point:763 slice_point:764 slice_point:765 slice_point:766 slice_point:767 slice_point:768 slice_point:769 slice_point:770 slice_point:771 slice_point:772 slice_point:773 slice_point:774 slice_point:775 slice_point:776 slice_point:777 slice_point:778 slice_point:779 slice_point:780 slice_point:781 slice_point:782 slice_point:783 slice_point:784 slice_point:785 slice_point:786 slice_point:787 slice_point:788 slice_point:789 slice_point:790 slice_point:791 slice_point:792 slice_point:793 slice_point:794 slice_point:795 slice_point:796 slice_point:797 slice_point:798 slice_point:799 slice_point:800 slice_point:801 slice_point:802 slice_point:803 slice_point:804 slice_point:805 slice_point:806 slice_point:807 slice_point:808 slice_point:809 slice_point:810 slice_point:811 slice_point:812 slice_point:813 slice_point:814 slice_point:815 slice_point:816 slice_point:817 slice_point:818 slice_point:819 slice_point:820 slice_point:821 slice_point:822 slice_point:823 slice_point:824 slice_point:825 slice_point:826 slice_point:827 slice_point:828 slice_point:829 slice_point:830 slice_point:831 slice_point:832 slice_point:833 slice_point:834 slice_point:835 slice_point:836 slice_point:837 slice_point:838 slice_point:839 slice_point:840 slice_point:841 slice_point:842 slice_point:843 slice_point:844 slice_point:845 slice_point:846 slice_point:847 slice_point:848 slice_point:849 slice_point:850 slice_point:851 slice_point:852 slice_point:853 slice_point:854 slice_point:855 slice_point:856 slice_point:857 slice_point:858 slice_point:859 slice_point:860 slice_point:861 slice_point:862 slice_point:863 slice_point:864 slice_point:865 slice_point:866 slice_point:867 slice_point:868 slice_point:869 slice_point:870 slice_point:871 slice_point:872 slice_point:873 slice_point:874 slice_point:875 slice_point:876 slice_point:877 slice_point:878 slice_point:879 slice_point:880 slice_point:881 slice_point:882 slice_point:883 slice_point:884 slice_point:885 slice_point:886 slice_point:887 slice_point:888 slice_point:889 slice_point:890 slice_point:891 slice_point:892 slice_point:893 slice_point:894 slice_point:895 slice_point:896 slice_point:897 slice_point:898 slice_point:899 slice_point:900 slice_point:901 slice_point:902 slice_point:903 slice_point:904 slice_point:905 slice_point:906 slice_point:907 slice_point:908 slice_point:909 slice_point:910 slice_point:911 slice_point:912 slice_point:913 slice_point:914 slice_point:915 slice_point:916 slice_point:917 slice_point:918 slice_point:919 slice_point:920 slice_point:921 slice_point:922 slice_point:923 slice_point:924 slice_point:925 slice_point:926 slice_point:927 slice_point:928 slice_point:929 slice_point:930 slice_point:931 slice_point:932 slice_point:933 slice_point:934 slice_point:935 slice_point:936 slice_point:937 slice_point:938 slice_point:939 slice_point:940 slice_point:941 slice_point:942 slice_point:943 slice_point:944 slice_point:945 slice_point:946 slice_point:947 slice_point:948 slice_point:949 slice_point:950 slice_point:951 slice_point:952 slice_point:953 slice_point:954 slice_point:955 slice_point:956 slice_point:957 slice_point:958 slice_point:959 slice_point:960 slice_point:961 slice_point:962 slice_point:963 slice_point:964 slice_point:965 slice_point:966 slice_point:967 slice_point:968 slice_point:969 slice_point:970 slice_point:971 slice_point:972 slice_point:973 slice_point:974 slice_point:975 slice_point:976 slice_point:977 slice_point:978 slice_point:979 slice_point:980 slice_point:981 slice_point:982 slice_point:983 slice_point:984 slice_point:985 slice_point:986 slice_point:987 slice_point:988 slice_point:989 slice_point:990 slice_point:991 slice_point:992 slice_point:993 slice_point:994 slice_point:995 slice_point:996 slice_point:997 slice_point:998 slice_point:999}}

#layer {name:"Slience" type:"Silence" bottom:"ECOC_label"}
####################################### conv1 #######################################
layer { name: "conv1/7x7_s2" type: "Convolution" bottom: "reshape_data" top: "conv1/7x7_s2"
  param { lr_mult: 0.1 decay_mult: 1 } param { lr_mult: 0.2 decay_mult: 0 }
  convolution_param { num_output: 64 pad: 3 kernel_size: 7 stride: 2
    weight_filler { type: "xavier" }
    bias_filler { type: "constant" value: 0.2 } } }
layer { name: "conv1/7x7_s2_bn" type: "BN" bottom: "conv1/7x7_s2" top: "conv1/7x7_s2_bn"
  param { lr_mult: 0.1 decay_mult: 1 } param { lr_mult: 0.2 decay_mult: 0 }
  bn_param { frozen: false slope_filler { type: "constant" value: 1 } bias_filler { type: "constant" value: 0 } } }
layer { name: "conv1/relu_7x7" type: "ReLU" bottom: "conv1/7x7_s2_bn" top: "conv1/7x7_s2_bn" }
layer { name: "pool1/3x3_s2" type: "Pooling" bottom: "conv1/7x7_s2_bn" top: "pool1/3x3_s2"
  pooling_param { pool: MAX kernel_size: 3 stride: 2 } }

####################################### conv2 #######################################
layer { name: "conv2/3x3_reduce" type: "Convolution" bottom: "pool1/3x3_s2" top: "conv2/3x3_reduce"
  param { lr_mult: 0.1 decay_mult: 1 } param { lr_mult: 0.2 decay_mult: 0 }
  convolution_param { num_output: 64 kernel_size: 1
    weight_filler { type: "xavier"}
    bias_filler { type: "constant" value: 0.2 } } }
layer { name: "conv2/3x3_reduce_bn" type: "BN" bottom: "conv2/3x3_reduce" top: "conv2/3x3_reduce_bn"
  param { lr_mult: 0.1 decay_mult: 1 } param { lr_mult: 0.2 decay_mult: 0 }
  bn_param { frozen: true slope_filler { type: "constant" value: 1 } bias_filler { type: "constant" value: 0 } } }
layer { name: "conv2/relu_3x3_reduce" type: "ReLU" bottom: "conv2/3x3_reduce_bn" top: "conv2/3x3_reduce_bn" }
layer { name: "conv2/3x3" type: "Convolution" bottom: "conv2/3x3_reduce_bn" top: "conv2/3x3"
  param { lr_mult: 0.1 decay_mult: 1 } param { lr_mult: 0.2 decay_mult: 0 }
  convolution_param { num_output: 192 pad: 1 kernel_size: 3
    weight_filler { type: "xavier"}
    bias_filler { type: "constant" value: 0.2 } } }
layer { name: "conv2/3x3_bn" type: "BN" bottom: "conv2/3x3" top: "conv2/3x3_bn"
  param { lr_mult: 0.1 decay_mult: 1 } param { lr_mult: 0.2 decay_mult: 0 }
  bn_param { frozen: true slope_filler { type: "constant" value: 1 } bias_filler { type: "constant" value: 0 } } }
layer { name: "conv2/relu_3x3" type: "ReLU" bottom: "conv2/3x3_bn" top: "conv2/3x3_bn" }
layer { name: "pool2/3x3_s2" type: "Pooling" bottom: "conv2/3x3_bn" top: "pool2/3x3_s2"
  pooling_param { pool: MAX kernel_size: 3 stride: 2 } }

####################################### inception_3a #######################################
layer { name: "inception_3a/1x1" type: "Convolution" bottom: "pool2/3x3_s2" top: "inception_3a/1x1"
  param { lr_mult: 0.1 decay_mult: 1 } param { lr_mult: 0.2 decay_mult: 0 }
  convolution_param { num_output: 64 kernel_size: 1
    weight_filler { type: "xavier"}
    bias_filler { type: "constant" value: 0.2 } } }
layer { name: "inception_3a/1x1_bn" type: "BN" bottom: "inception_3a/1x1" top: "inception_3a/1x1_bn"
  param { lr_mult: 0.1 decay_mult: 1 } param { lr_mult: 0.2 decay_mult: 0 }
  bn_param { frozen: true slope_filler { type: "constant" value: 1 } bias_filler { type: "constant" value: 0 } } }
layer { name: "inception_3a/relu_1x1" type: "ReLU" bottom: "inception_3a/1x1_bn" top: "inception_3a/1x1_bn" }
layer { name: "inception_3a/3x3_reduce" type: "Convolution" bottom: "pool2/3x3_s2" top: "inception_3a/3x3_reduce"
  param { lr_mult: 0.1 decay_mult: 1 } param { lr_mult: 0.2 decay_mult: 0 }
  convolution_param { num_output: 64 kernel_size: 1
    weight_filler { type: "xavier"}
    bias_filler { type: "constant" value: 0.2 } } }
layer { name: "inception_3a/3x3_reduce_bn" type: "BN" bottom: "inception_3a/3x3_reduce" top: "inception_3a/3x3_reduce_bn"
  param { lr_mult: 0.1 decay_mult: 1 } param { lr_mult: 0.2 decay_mult: 0 }
  bn_param { frozen: true slope_filler { type: "constant" value: 1 } bias_filler { type: "constant" value: 0 } } }
layer { name: "inception_3a/relu_3x3_reduce" type: "ReLU" bottom: "inception_3a/3x3_reduce_bn" top: "inception_3a/3x3_reduce_bn" }
layer { name: "inception_3a/3x3" type: "Convolution" bottom: "inception_3a/3x3_reduce_bn" top: "inception_3a/3x3"
  param { lr_mult: 0.1 decay_mult: 1 } param { lr_mult: 0.2 decay_mult: 0 }
  convolution_param { num_output: 64 pad: 1 kernel_size: 3
    weight_filler { type: "xavier" }
    bias_filler { type: "constant" value: 0.2 } } }
layer { name: "inception_3a/3x3_bn" type: "BN" bottom: "inception_3a/3x3" top: "inception_3a/3x3_bn"
  param { lr_mult: 0.1 decay_mult: 1 } param { lr_mult: 0.2 decay_mult: 0 }
  bn_param { frozen: true slope_filler { type: "constant" value: 1 } bias_filler { type: "constant" value: 0 } } }
layer { name: "inception_3a/relu_3x3" type: "ReLU" bottom: "inception_3a/3x3_bn" top: "inception_3a/3x3_bn" }
layer { name: "inception_3a/double_3x3_reduce" type: "Convolution" bottom: "pool2/3x3_s2" top: "inception_3a/double_3x3_reduce"
  param { lr_mult: 0.1 decay_mult: 1 } param { lr_mult: 0.2 decay_mult: 0 }
  convolution_param { num_output: 64 kernel_size: 1
    weight_filler { type: "xavier" }
    bias_filler { type: "constant" value: 0.2 } } }
layer { name: "inception_3a/double_3x3_reduce_bn" type: "BN" bottom: "inception_3a/double_3x3_reduce" top: "inception_3a/double_3x3_reduce_bn"
  param { lr_mult: 0.1 decay_mult: 1 } param { lr_mult: 0.2 decay_mult: 0 }
  bn_param { frozen: true slope_filler { type: "constant" value: 1 } bias_filler { type: "constant" value: 0 } } }
layer { name: "inception_3a/relu_double_3x3_reduce" type: "ReLU" bottom: "inception_3a/double_3x3_reduce_bn" top: "inception_3a/double_3x3_reduce_bn" }
layer { name: "inception_3a/double_3x3_1" type: "Convolution" bottom: "inception_3a/double_3x3_reduce_bn" top: "inception_3a/double_3x3_1"
  param { lr_mult: 0.1 decay_mult: 1 } param { lr_mult: 0.2 decay_mult: 0 }
  convolution_param { num_output: 96 pad: 1 kernel_size: 3
    weight_filler { type: "xavier"}
    bias_filler { type: "constant" value: 0.2 } } }
layer { name: "inception_3a/double_3x3_1_bn" type: "BN" bottom: "inception_3a/double_3x3_1" top: "inception_3a/double_3x3_1_bn"
  param { lr_mult: 0.1 decay_mult: 1 } param { lr_mult: 0.2 decay_mult: 0 }
  bn_param { frozen: true slope_filler { type: "constant" value: 1 } bias_filler { type: "constant" value: 0 } } }
layer { name: "inception_3a/relu_double_3x3_1" type: "ReLU" bottom: "inception_3a/double_3x3_1_bn" top: "inception_3a/double_3x3_1_bn" }
layer { name: "inception_3a/double_3x3_2" type: "Convolution" bottom: "inception_3a/double_3x3_1_bn" top: "inception_3a/double_3x3_2"
  param { lr_mult: 0.1 decay_mult: 1 } param { lr_mult: 0.2 decay_mult: 0 }
  convolution_param { num_output: 96 pad: 1 kernel_size: 3
    weight_filler { type: "xavier"}
    bias_filler { type: "constant" value: 0.2 } } }
layer { name: "inception_3a/double_3x3_2_bn" type: "BN" bottom: "inception_3a/double_3x3_2" top: "inception_3a/double_3x3_2_bn"
  param { lr_mult: 0.1 decay_mult: 1 } param { lr_mult: 0.2 decay_mult: 0 }
  bn_param { frozen: true slope_filler { type: "constant" value: 1 } bias_filler { type: "constant" value: 0 } } }
layer { name: "inception_3a/relu_double_3x3_2" type: "ReLU" bottom: "inception_3a/double_3x3_2_bn" top: "inception_3a/double_3x3_2_bn" }
layer { name: "inception_3a/pool" type: "Pooling" bottom: "pool2/3x3_s2" top: "inception_3a/pool"
  pooling_param { pool: AVE kernel_size: 3 stride: 1 pad: 1 } }
layer { name: "inception_3a/pool_proj" type: "Convolution" bottom: "inception_3a/pool" top: "inception_3a/pool_proj"
  param { lr_mult: 0.1 decay_mult: 1 } param { lr_mult: 0.2 decay_mult: 0 }
  convolution_param { num_output: 32 kernel_size: 1
    weight_filler { type: "xavier" }
    bias_filler { type: "constant" value: 0.2 } } }
layer { name: "inception_3a/pool_proj_bn" type: "BN" bottom: "inception_3a/pool_proj" top: "inception_3a/pool_proj_bn"
  param { lr_mult: 0.1 decay_mult: 1 } param { lr_mult: 0.2 decay_mult: 0 }
  bn_param { frozen: true slope_filler { type: "constant" value: 1 } bias_filler { type: "constant" value: 0 } } }
layer { name: "inception_3a/relu_pool_proj" type: "ReLU" bottom: "inception_3a/pool_proj_bn" top: "inception_3a/pool_proj_bn" }
layer { name: "inception_3a/output" type: "Concat"
  bottom: "inception_3a/1x1_bn"
  bottom: "inception_3a/3x3_bn"
  bottom: "inception_3a/double_3x3_2_bn"
  bottom: "inception_3a/pool_proj_bn"
  top: "inception_3a/output" }

####################################### inception_3b #######################################
layer { name: "inception_3b/1x1" type: "Convolution" bottom: "inception_3a/output" top: "inception_3b/1x1"
  param { lr_mult: 0.1 decay_mult: 1 } param { lr_mult: 0.2 decay_mult: 0 }
  convolution_param { num_output: 64 kernel_size: 1
    weight_filler { type: "xavier"}
    bias_filler { type: "constant" value: 0.2 } } }
layer { name: "inception_3b/1x1_bn" type: "BN" bottom: "inception_3b/1x1" top: "inception_3b/1x1_bn"
  param { lr_mult: 0.1 decay_mult: 1 } param { lr_mult: 0.2 decay_mult: 0 }
  bn_param { frozen: true slope_filler { type: "constant" value: 1 } bias_filler { type: "constant" value: 0 } } }
layer { name: "inception_3b/relu_1x1" type: "ReLU" bottom: "inception_3b/1x1_bn" top: "inception_3b/1x1_bn" }
layer { name: "inception_3b/3x3_reduce" type: "Convolution" bottom: "inception_3a/output" top: "inception_3b/3x3_reduce"
  param { lr_mult: 0.1 decay_mult: 1 } param { lr_mult: 0.2 decay_mult: 0 }
  convolution_param { num_output: 64 kernel_size: 1
    weight_filler { type: "xavier"}
    bias_filler { type: "constant" value: 0.2 } } }
layer { name: "inception_3b/3x3_reduce_bn" type: "BN" bottom: "inception_3b/3x3_reduce" top: "inception_3b/3x3_reduce_bn"
  param { lr_mult: 0.1 decay_mult: 1 } param { lr_mult: 0.2 decay_mult: 0 }
  bn_param { frozen: true slope_filler { type: "constant" value: 1 } bias_filler { type: "constant" value: 0 } } }
layer { name: "inception_3b/relu_3x3_reduce" type: "ReLU" bottom: "inception_3b/3x3_reduce_bn" top: "inception_3b/3x3_reduce_bn" }
layer { name: "inception_3b/3x3" type: "Convolution" bottom: "inception_3b/3x3_reduce_bn" top: "inception_3b/3x3"
  param { lr_mult: 0.1 decay_mult: 1 } param { lr_mult: 0.2 decay_mult: 0 }
  convolution_param { num_output: 96 pad: 1 kernel_size: 3
    weight_filler { type: "xavier" }
    bias_filler { type: "constant" value: 0.2 } } }
layer { name: "inception_3b/3x3_bn" type: "BN" bottom: "inception_3b/3x3" top: "inception_3b/3x3_bn"
  param { lr_mult: 0.1 decay_mult: 1 } param { lr_mult: 0.2 decay_mult: 0 }
  bn_param { frozen: true slope_filler { type: "constant" value: 1 } bias_filler { type: "constant" value: 0 } } }
layer { name: "inception_3b/relu_3x3" type: "ReLU" bottom: "inception_3b/3x3_bn" top: "inception_3b/3x3_bn" }
layer { name: "inception_3b/double_3x3_reduce" type: "Convolution" bottom: "inception_3a/output" top: "inception_3b/double_3x3_reduce"
  param { lr_mult: 0.1 decay_mult: 1 } param { lr_mult: 0.2 decay_mult: 0 }
  convolution_param { num_output: 64 kernel_size: 1
    weight_filler { type: "xavier" }
    bias_filler { type: "constant" value: 0.2 } } }
layer { name: "inception_3b/double_3x3_reduce_bn" type: "BN" bottom: "inception_3b/double_3x3_reduce" top: "inception_3b/double_3x3_reduce_bn"
  param { lr_mult: 0.1 decay_mult: 1 } param { lr_mult: 0.2 decay_mult: 0 }
  bn_param { frozen: true slope_filler { type: "constant" value: 1 } bias_filler { type: "constant" value: 0 } } }
layer { name: "inception_3b/relu_double_3x3_reduce" type: "ReLU" bottom: "inception_3b/double_3x3_reduce_bn" top: "inception_3b/double_3x3_reduce_bn" }
layer { name: "inception_3b/double_3x3_1" type: "Convolution" bottom: "inception_3b/double_3x3_reduce_bn" top: "inception_3b/double_3x3_1"
  param { lr_mult: 0.1 decay_mult: 1 } param { lr_mult: 0.2 decay_mult: 0 }
  convolution_param { num_output: 96 pad: 1 kernel_size: 3
    weight_filler { type: "xavier"}
    bias_filler { type: "constant" value: 0.2 } } }
layer { name: "inception_3b/double_3x3_1_bn" type: "BN" bottom: "inception_3b/double_3x3_1" top: "inception_3b/double_3x3_1_bn"
  param { lr_mult: 0.1 decay_mult: 1 } param { lr_mult: 0.2 decay_mult: 0 }
  bn_param { frozen: true slope_filler { type: "constant" value: 1 } bias_filler { type: "constant" value: 0 } } }
layer { name: "inception_3b/relu_double_3x3_1" type: "ReLU" bottom: "inception_3b/double_3x3_1_bn" top: "inception_3b/double_3x3_1_bn" }
layer { name: "inception_3b/double_3x3_2" type: "Convolution" bottom: "inception_3b/double_3x3_1_bn" top: "inception_3b/double_3x3_2"
  param { lr_mult: 0.1 decay_mult: 1 } param { lr_mult: 0.2 decay_mult: 0 }
  convolution_param { num_output: 96 pad: 1 kernel_size: 3
    weight_filler { type: "xavier"}
    bias_filler { type: "constant" value: 0.2 } } }
layer { name: "inception_3b/double_3x3_2_bn" type: "BN" bottom: "inception_3b/double_3x3_2" top: "inception_3b/double_3x3_2_bn"
  param { lr_mult: 0.1 decay_mult: 1 } param { lr_mult: 0.2 decay_mult: 0 }
  bn_param { frozen: true slope_filler { type: "constant" value: 1 } bias_filler { type: "constant" value: 0 } } }
layer { name: "inception_3b/relu_double_3x3_2" type: "ReLU" bottom: "inception_3b/double_3x3_2_bn" top: "inception_3b/double_3x3_2_bn" }
layer { name: "inception_3b/pool" type: "Pooling" bottom: "inception_3a/output" top: "inception_3b/pool"
  pooling_param { pool: AVE kernel_size: 3 stride: 1 pad: 1 } }
layer { name: "inception_3b/pool_proj" type: "Convolution" bottom: "inception_3b/pool" top: "inception_3b/pool_proj"
  param { lr_mult: 0.1 decay_mult: 1 } param { lr_mult: 0.2 decay_mult: 0 }
  convolution_param { num_output: 64 kernel_size: 1
    weight_filler { type: "xavier" }
    bias_filler { type: "constant" value: 0.2 } } }
layer { name: "inception_3b/pool_proj_bn" type: "BN" bottom: "inception_3b/pool_proj" top: "inception_3b/pool_proj_bn"
  param { lr_mult: 0.1 decay_mult: 1 } param { lr_mult: 0.2 decay_mult: 0 }
  bn_param { frozen: true slope_filler { type: "constant" value: 1 } bias_filler { type: "constant" value: 0 } } }
layer { name: "inception_3b/relu_pool_proj" type: "ReLU" bottom: "inception_3b/pool_proj_bn" top: "inception_3b/pool_proj_bn" }
layer { name: "inception_3b/output" type: "Concat"
  bottom: "inception_3b/1x1_bn"
  bottom: "inception_3b/3x3_bn"
  bottom: "inception_3b/double_3x3_2_bn"
  bottom: "inception_3b/pool_proj_bn"
  top: "inception_3b/output" }

####################################### inception_3c #######################################
layer { name: "inception_3c/3x3_reduce" type: "Convolution" bottom: "inception_3b/output" top: "inception_3c/3x3_reduce"
  param { lr_mult: 0.1 decay_mult: 1 } param { lr_mult: 0.2 decay_mult: 0 }
  convolution_param { num_output: 128 kernel_size: 1
    weight_filler { type: "xavier"}
    bias_filler { type: "constant" value: 0.2 } } }
layer { name: "inception_3c/3x3_reduce_bn" type: "BN" bottom: "inception_3c/3x3_reduce" top: "inception_3c/3x3_reduce_bn"
  param { lr_mult: 0.1 decay_mult: 1 } param { lr_mult: 0.2 decay_mult: 0 }
  bn_param { frozen: true slope_filler { type: "constant" value: 1 } bias_filler { type: "constant" value: 0 } } }
layer { name: "inception_3c/relu_3x3_reduce" type: "ReLU" bottom: "inception_3c/3x3_reduce_bn" top: "inception_3c/3x3_reduce_bn" }
layer { name: "inception_3c/3x3" type: "Convolution" bottom: "inception_3c/3x3_reduce_bn" top: "inception_3c/3x3"
  param { lr_mult: 0.1 decay_mult: 1 } param { lr_mult: 0.2 decay_mult: 0 }
  convolution_param { num_output: 160 pad: 1 kernel_size: 3 stride: 2
    weight_filler { type: "xavier" }
    bias_filler { type: "constant" value: 0.2 } } }
layer { name: "inception_3c/3x3_bn" type: "BN" bottom: "inception_3c/3x3" top: "inception_3c/3x3_bn"
  param { lr_mult: 0.1 decay_mult: 1 } param { lr_mult: 0.2 decay_mult: 0 }
  bn_param { frozen: true slope_filler { type: "constant" value: 1 } bias_filler { type: "constant" value: 0 } } }
layer { name: "inception_3c/relu_3x3" type: "ReLU" bottom: "inception_3c/3x3_bn" top: "inception_3c/3x3_bn" }
layer { name: "inception_3c/double_3x3_reduce" type: "Convolution" bottom: "inception_3b/output" top: "inception_3c/double_3x3_reduce"
  param { lr_mult: 0.1 decay_mult: 1 } param { lr_mult: 0.2 decay_mult: 0 }
  convolution_param { num_output: 64 kernel_size: 1
    weight_filler { type: "xavier" }
    bias_filler { type: "constant" value: 0.2 } } }
layer { name: "inception_3c/double_3x3_reduce_bn" type: "BN" bottom: "inception_3c/double_3x3_reduce" top: "inception_3c/double_3x3_reduce_bn"
  param { lr_mult: 0.1 decay_mult: 1 } param { lr_mult: 0.2 decay_mult: 0 }
  bn_param { frozen: true slope_filler { type: "constant" value: 1 } bias_filler { type: "constant" value: 0 } } }
layer { name: "inception_3c/relu_double_3x3_reduce" type: "ReLU" bottom: "inception_3c/double_3x3_reduce_bn" top: "inception_3c/double_3x3_reduce_bn" }
layer { name: "inception_3c/double_3x3_1" type: "Convolution" bottom: "inception_3c/double_3x3_reduce_bn" top: "inception_3c/double_3x3_1"
  param { lr_mult: 0.1 decay_mult: 1 } param { lr_mult: 0.2 decay_mult: 0 }
  convolution_param { num_output: 96 pad: 1 kernel_size: 3
    weight_filler { type: "xavier"}
    bias_filler { type: "constant" value: 0.2 } } }
layer { name: "inception_3c/double_3x3_1_bn" type: "BN" bottom: "inception_3c/double_3x3_1" top: "inception_3c/double_3x3_1_bn"
  param { lr_mult: 0.1 decay_mult: 1 } param { lr_mult: 0.2 decay_mult: 0 }
  bn_param { frozen: true slope_filler { type: "constant" value: 1 } bias_filler { type: "constant" value: 0 } } }
layer { name: "inception_3c/relu_double_3x3_1" type: "ReLU" bottom: "inception_3c/double_3x3_1_bn" top: "inception_3c/double_3x3_1_bn" }
layer { name: "inception_3c/double_3x3_2" type: "Convolution" bottom: "inception_3c/double_3x3_1_bn" top: "inception_3c/double_3x3_2"
  param { lr_mult: 0.1 decay_mult: 1 } param { lr_mult: 0.2 decay_mult: 0 }
  convolution_param { num_output: 96 pad: 1 kernel_size: 3 stride: 2
    weight_filler { type: "xavier"}
    bias_filler { type: "constant" value: 0.2 } } }
layer { name: "inception_3c/double_3x3_2_bn" type: "BN" bottom: "inception_3c/double_3x3_2" top: "inception_3c/double_3x3_2_bn"
  param { lr_mult: 0.1 decay_mult: 1 } param { lr_mult: 0.2 decay_mult: 0 }
  bn_param { frozen: true slope_filler { type: "constant" value: 1 } bias_filler { type: "constant" value: 0 } } }
layer { name: "inception_3c/relu_double_3x3_2" type: "ReLU" bottom: "inception_3c/double_3x3_2_bn" top: "inception_3c/double_3x3_2_bn" }
layer { name: "inception_3c/pool" type: "Pooling" bottom: "inception_3b/output" top: "inception_3c/pool"
  pooling_param { pool: MAX kernel_size: 3 stride: 2 } }
layer { name: "inception_3c/output" type: "Concat"
  bottom: "inception_3c/3x3_bn"
  bottom: "inception_3c/double_3x3_2_bn"
  bottom: "inception_3c/pool"
  top: "inception_3c/output" }

####################################### inception_4a #######################################
layer { name: "inception_4a/1x1" type: "Convolution" bottom: "inception_3c/output" top: "inception_4a/1x1"
  param { lr_mult: 0.1 decay_mult: 1 } param { lr_mult: 0.2 decay_mult: 0 }
  convolution_param { num_output: 224 kernel_size: 1
    weight_filler { type: "xavier"}
    bias_filler { type: "constant" value: 0.2 } } }
layer { name: "inception_4a/1x1_bn" type: "BN" bottom: "inception_4a/1x1" top: "inception_4a/1x1_bn"
  param { lr_mult: 0.1 decay_mult: 1 } param { lr_mult: 0.2 decay_mult: 0 }
  bn_param { frozen: true slope_filler { type: "constant" value: 1 } bias_filler { type: "constant" value: 0 } } }
layer { name: "inception_4a/relu_1x1" type: "ReLU" bottom: "inception_4a/1x1_bn" top: "inception_4a/1x1_bn" }
layer { name: "inception_4a/3x3_reduce" type: "Convolution" bottom: "inception_3c/output" top: "inception_4a/3x3_reduce"
  param { lr_mult: 0.1 decay_mult: 1 } param { lr_mult: 0.2 decay_mult: 0 }
  convolution_param { num_output: 64 kernel_size: 1
    weight_filler { type: "xavier"}
    bias_filler { type: "constant" value: 0.2 } } }
layer { name: "inception_4a/3x3_reduce_bn" type: "BN" bottom: "inception_4a/3x3_reduce" top: "inception_4a/3x3_reduce_bn"
  param { lr_mult: 0.1 decay_mult: 1 } param { lr_mult: 0.2 decay_mult: 0 }
  bn_param { frozen: true slope_filler { type: "constant" value: 1 } bias_filler { type: "constant" value: 0 } } }
layer { name: "inception_4a/relu_3x3_reduce" type: "ReLU" bottom: "inception_4a/3x3_reduce_bn" top: "inception_4a/3x3_reduce_bn" }
layer { name: "inception_4a/3x3" type: "Convolution" bottom: "inception_4a/3x3_reduce_bn" top: "inception_4a/3x3"
  param { lr_mult: 0.1 decay_mult: 1 } param { lr_mult: 0.2 decay_mult: 0 }
  convolution_param { num_output: 96 pad: 1 kernel_size: 3
    weight_filler { type: "xavier" }
    bias_filler { type: "constant" value: 0.2 } } }
layer { name: "inception_4a/3x3_bn" type: "BN" bottom: "inception_4a/3x3" top: "inception_4a/3x3_bn"
  param { lr_mult: 0.1 decay_mult: 1 } param { lr_mult: 0.2 decay_mult: 0 }
  bn_param { frozen: true slope_filler { type: "constant" value: 1 } bias_filler { type: "constant" value: 0 } } }
layer { name: "inception_4a/relu_3x3" type: "ReLU" bottom: "inception_4a/3x3_bn" top: "inception_4a/3x3_bn" }
layer { name: "inception_4a/double_3x3_reduce" type: "Convolution" bottom: "inception_3c/output" top: "inception_4a/double_3x3_reduce"
  param { lr_mult: 0.1 decay_mult: 1 } param { lr_mult: 0.2 decay_mult: 0 }
  convolution_param { num_output: 96 kernel_size: 1
    weight_filler { type: "xavier" }
    bias_filler { type: "constant" value: 0.2 } } }
layer { name: "inception_4a/double_3x3_reduce_bn" type: "BN" bottom: "inception_4a/double_3x3_reduce" top: "inception_4a/double_3x3_reduce_bn"
  param { lr_mult: 0.1 decay_mult: 1 } param { lr_mult: 0.2 decay_mult: 0 }
  bn_param { frozen: true slope_filler { type: "constant" value: 1 } bias_filler { type: "constant" value: 0 } } }
layer { name: "inception_4a/relu_double_3x3_reduce" type: "ReLU" bottom: "inception_4a/double_3x3_reduce_bn" top: "inception_4a/double_3x3_reduce_bn" }
layer { name: "inception_4a/double_3x3_1" type: "Convolution" bottom: "inception_4a/double_3x3_reduce_bn" top: "inception_4a/double_3x3_1"
  param { lr_mult: 0.1 decay_mult: 1 } param { lr_mult: 0.2 decay_mult: 0 }
  convolution_param { num_output: 128 pad: 1 kernel_size: 3
    weight_filler { type: "xavier"}
    bias_filler { type: "constant" value: 0.2 } } }
layer { name: "inception_4a/double_3x3_1_bn" type: "BN" bottom: "inception_4a/double_3x3_1" top: "inception_4a/double_3x3_1_bn"
  param { lr_mult: 0.1 decay_mult: 1 } param { lr_mult: 0.2 decay_mult: 0 }
  bn_param { frozen: true slope_filler { type: "constant" value: 1 } bias_filler { type: "constant" value: 0 } } }
layer { name: "inception_4a/relu_double_3x3_1" type: "ReLU" bottom: "inception_4a/double_3x3_1_bn" top: "inception_4a/double_3x3_1_bn" }
layer { name: "inception_4a/double_3x3_2" type: "Convolution" bottom: "inception_4a/double_3x3_1_bn" top: "inception_4a/double_3x3_2"
  param { lr_mult: 0.1 decay_mult: 1 } param { lr_mult: 0.2 decay_mult: 0 }
  convolution_param { num_output: 128 pad: 1 kernel_size: 3
    weight_filler { type: "xavier"}
    bias_filler { type: "constant" value: 0.2 } } }
layer { name: "inception_4a/double_3x3_2_bn" type: "BN" bottom: "inception_4a/double_3x3_2" top: "inception_4a/double_3x3_2_bn"
  param { lr_mult: 0.1 decay_mult: 1 } param { lr_mult: 0.2 decay_mult: 0 }
  bn_param { frozen: true slope_filler { type: "constant" value: 1 } bias_filler { type: "constant" value: 0 } } }
layer { name: "inception_4a/relu_double_3x3_2" type: "ReLU" bottom: "inception_4a/double_3x3_2_bn" top: "inception_4a/double_3x3_2_bn" }
layer { name: "inception_4a/pool" type: "Pooling" bottom: "inception_3c/output" top: "inception_4a/pool"
  pooling_param { pool: AVE kernel_size: 3 stride: 1 pad: 1 } }
layer { name: "inception_4a/pool_proj" type: "Convolution" bottom: "inception_4a/pool" top: "inception_4a/pool_proj"
  param { lr_mult: 0.1 decay_mult: 1 } param { lr_mult: 0.2 decay_mult: 0 }
  convolution_param { num_output: 128 kernel_size: 1
    weight_filler { type: "xavier" }
    bias_filler { type: "constant" value: 0.2 } } }
layer { name: "inception_4a/pool_proj_bn" type: "BN" bottom: "inception_4a/pool_proj" top: "inception_4a/pool_proj_bn"
  param { lr_mult: 0.1 decay_mult: 1 } param { lr_mult: 0.2 decay_mult: 0 }
  bn_param { frozen: true slope_filler { type: "constant" value: 1 } bias_filler { type: "constant" value: 0 } } }
layer { name: "inception_4a/relu_pool_proj" type: "ReLU" bottom: "inception_4a/pool_proj_bn" top: "inception_4a/pool_proj_bn" }
layer { name: "inception_4a/output" type: "Concat"
  bottom: "inception_4a/1x1_bn"
  bottom: "inception_4a/3x3_bn"
  bottom: "inception_4a/double_3x3_2_bn"
  bottom: "inception_4a/pool_proj_bn"
  top: "inception_4a/output" }

####################################### inception_4b #######################################
layer { name: "inception_4b/1x1" type: "Convolution" bottom: "inception_4a/output" top: "inception_4b/1x1"
  param { lr_mult: 0.1 decay_mult: 1 } param { lr_mult: 0.2 decay_mult: 0 }
  convolution_param { num_output: 192 kernel_size: 1
    weight_filler { type: "xavier"}
    bias_filler { type: "constant" value: 0.2 } } }
layer { name: "inception_4b/1x1_bn" type: "BN" bottom: "inception_4b/1x1" top: "inception_4b/1x1_bn"
  param { lr_mult: 0.1 decay_mult: 1 } param { lr_mult: 0.2 decay_mult: 0 }
  bn_param { frozen: true slope_filler { type: "constant" value: 1 } bias_filler { type: "constant" value: 0 } } }
layer { name: "inception_4b/relu_1x1" type: "ReLU" bottom: "inception_4b/1x1_bn" top: "inception_4b/1x1_bn" }
layer { name: "inception_4b/3x3_reduce" type: "Convolution" bottom: "inception_4a/output" top: "inception_4b/3x3_reduce"
  param { lr_mult: 0.1 decay_mult: 1 } param { lr_mult: 0.2 decay_mult: 0 }
  convolution_param { num_output: 96 kernel_size: 1
    weight_filler { type: "xavier"}
    bias_filler { type: "constant" value: 0.2 } } }
layer { name: "inception_4b/3x3_reduce_bn" type: "BN" bottom: "inception_4b/3x3_reduce" top: "inception_4b/3x3_reduce_bn"
  param { lr_mult: 0.1 decay_mult: 1 } param { lr_mult: 0.2 decay_mult: 0 }
  bn_param { frozen: true slope_filler { type: "constant" value: 1 } bias_filler { type: "constant" value: 0 } } }
layer { name: "inception_4b/relu_3x3_reduce" type: "ReLU" bottom: "inception_4b/3x3_reduce_bn" top: "inception_4b/3x3_reduce_bn" }
layer { name: "inception_4b/3x3" type: "Convolution" bottom: "inception_4b/3x3_reduce_bn" top: "inception_4b/3x3"
  param { lr_mult: 0.1 decay_mult: 1 } param { lr_mult: 0.2 decay_mult: 0 }
  convolution_param { num_output: 128 pad: 1 kernel_size: 3
    weight_filler { type: "xavier" }
    bias_filler { type: "constant" value: 0.2 } } }
layer { name: "inception_4b/3x3_bn" type: "BN" bottom: "inception_4b/3x3" top: "inception_4b/3x3_bn"
  param { lr_mult: 0.1 decay_mult: 1 } param { lr_mult: 0.2 decay_mult: 0 }
  bn_param { frozen: true slope_filler { type: "constant" value: 1 } bias_filler { type: "constant" value: 0 } } }
layer { name: "inception_4b/relu_3x3" type: "ReLU" bottom: "inception_4b/3x3_bn" top: "inception_4b/3x3_bn" }
layer { name: "inception_4b/double_3x3_reduce" type: "Convolution" bottom: "inception_4a/output" top: "inception_4b/double_3x3_reduce"
  param { lr_mult: 0.1 decay_mult: 1 } param { lr_mult: 0.2 decay_mult: 0 }
  convolution_param { num_output: 96 kernel_size: 1
    weight_filler { type: "xavier" }
    bias_filler { type: "constant" value: 0.2 } } }
layer { name: "inception_4b/double_3x3_reduce_bn" type: "BN" bottom: "inception_4b/double_3x3_reduce" top: "inception_4b/double_3x3_reduce_bn"
  param { lr_mult: 0.1 decay_mult: 1 } param { lr_mult: 0.2 decay_mult: 0 }
  bn_param { frozen: true slope_filler { type: "constant" value: 1 } bias_filler { type: "constant" value: 0 } } }
layer { name: "inception_4b/relu_double_3x3_reduce" type: "ReLU" bottom: "inception_4b/double_3x3_reduce_bn" top: "inception_4b/double_3x3_reduce_bn" }
layer { name: "inception_4b/double_3x3_1" type: "Convolution" bottom: "inception_4b/double_3x3_reduce_bn" top: "inception_4b/double_3x3_1"
  param { lr_mult: 0.1 decay_mult: 1 } param { lr_mult: 0.2 decay_mult: 0 }
  convolution_param { num_output: 128 pad: 1 kernel_size: 3
    weight_filler { type: "xavier"}
    bias_filler { type: "constant" value: 0.2 } } }
layer { name: "inception_4b/double_3x3_1_bn" type: "BN" bottom: "inception_4b/double_3x3_1" top: "inception_4b/double_3x3_1_bn"
  param { lr_mult: 0.1 decay_mult: 1 } param { lr_mult: 0.2 decay_mult: 0 }
  bn_param { frozen: true slope_filler { type: "constant" value: 1 } bias_filler { type: "constant" value: 0 } } }
layer { name: "inception_4b/relu_double_3x3_1" type: "ReLU" bottom: "inception_4b/double_3x3_1_bn" top: "inception_4b/double_3x3_1_bn" }
layer { name: "inception_4b/double_3x3_2" type: "Convolution" bottom: "inception_4b/double_3x3_1_bn" top: "inception_4b/double_3x3_2"
  param { lr_mult: 0.1 decay_mult: 1 } param { lr_mult: 0.2 decay_mult: 0 }
  convolution_param { num_output: 128 pad: 1 kernel_size: 3
    weight_filler { type: "xavier"}
    bias_filler { type: "constant" value: 0.2 } } }
layer { name: "inception_4b/double_3x3_2_bn" type: "BN" bottom: "inception_4b/double_3x3_2" top: "inception_4b/double_3x3_2_bn"
  param { lr_mult: 0.1 decay_mult: 1 } param { lr_mult: 0.2 decay_mult: 0 }
  bn_param { frozen: true slope_filler { type: "constant" value: 1 } bias_filler { type: "constant" value: 0 } } }
layer { name: "inception_4b/relu_double_3x3_2" type: "ReLU" bottom: "inception_4b/double_3x3_2_bn" top: "inception_4b/double_3x3_2_bn" }
layer { name: "inception_4b/pool" type: "Pooling" bottom: "inception_4a/output" top: "inception_4b/pool"
  pooling_param { pool: AVE kernel_size: 3 stride: 1 pad: 1 } }
layer { name: "inception_4b/pool_proj" type: "Convolution" bottom: "inception_4b/pool" top: "inception_4b/pool_proj"
  param { lr_mult: 0.1 decay_mult: 1 } param { lr_mult: 0.2 decay_mult: 0 }
  convolution_param { num_output: 128 kernel_size: 1
    weight_filler { type: "xavier" }
    bias_filler { type: "constant" value: 0.2 } } }
layer { name: "inception_4b/pool_proj_bn" type: "BN" bottom: "inception_4b/pool_proj" top: "inception_4b/pool_proj_bn"
  param { lr_mult: 0.1 decay_mult: 1 } param { lr_mult: 0.2 decay_mult: 0 }
  bn_param { frozen: true slope_filler { type: "constant" value: 1 } bias_filler { type: "constant" value: 0 } } }
layer { name: "inception_4b/relu_pool_proj" type: "ReLU" bottom: "inception_4b/pool_proj_bn" top: "inception_4b/pool_proj_bn" }
layer { name: "inception_4b/output" type: "Concat"
  bottom: "inception_4b/1x1_bn"
  bottom: "inception_4b/3x3_bn"
  bottom: "inception_4b/double_3x3_2_bn"
  bottom: "inception_4b/pool_proj_bn"
  top: "inception_4b/output" }

####################################### inception_4c #######################################
layer { name: "inception_4c/1x1" type: "Convolution" bottom: "inception_4b/output" top: "inception_4c/1x1"
  param { lr_mult: 0.1 decay_mult: 1 } param { lr_mult: 0.2 decay_mult: 0 }
  convolution_param { num_output: 160 kernel_size: 1
    weight_filler { type: "xavier"}
    bias_filler { type: "constant" value: 0.2 } } }
layer { name: "inception_4c/1x1_bn" type: "BN" bottom: "inception_4c/1x1" top: "inception_4c/1x1_bn"
  param { lr_mult: 0.1 decay_mult: 1 } param { lr_mult: 0.2 decay_mult: 0 }
  bn_param { frozen: true slope_filler { type: "constant" value: 1 } bias_filler { type: "constant" value: 0 } } }
layer { name: "inception_4c/relu_1x1" type: "ReLU" bottom: "inception_4c/1x1_bn" top: "inception_4c/1x1_bn" }
layer { name: "inception_4c/3x3_reduce" type: "Convolution" bottom: "inception_4b/output" top: "inception_4c/3x3_reduce"
  param { lr_mult: 0.1 decay_mult: 1 } param { lr_mult: 0.2 decay_mult: 0 }
  convolution_param { num_output: 128 kernel_size: 1
    weight_filler { type: "xavier"}
    bias_filler { type: "constant" value: 0.2 } } }
layer { name: "inception_4c/3x3_reduce_bn" type: "BN" bottom: "inception_4c/3x3_reduce" top: "inception_4c/3x3_reduce_bn"
  param { lr_mult: 0.1 decay_mult: 1 } param { lr_mult: 0.2 decay_mult: 0 }
  bn_param { frozen: true slope_filler { type: "constant" value: 1 } bias_filler { type: "constant" value: 0 } } }
layer { name: "inception_4c/relu_3x3_reduce" type: "ReLU" bottom: "inception_4c/3x3_reduce_bn" top: "inception_4c/3x3_reduce_bn" }
layer { name: "inception_4c/3x3" type: "Convolution" bottom: "inception_4c/3x3_reduce_bn" top: "inception_4c/3x3"
  param { lr_mult: 0.1 decay_mult: 1 } param { lr_mult: 0.2 decay_mult: 0 }
  convolution_param { num_output: 160 pad: 1 kernel_size: 3
    weight_filler { type: "xavier" }
    bias_filler { type: "constant" value: 0.2 } } }
layer { name: "inception_4c/3x3_bn" type: "BN" bottom: "inception_4c/3x3" top: "inception_4c/3x3_bn"
  param { lr_mult: 0.1 decay_mult: 1 } param { lr_mult: 0.2 decay_mult: 0 }
  bn_param { frozen: true slope_filler { type: "constant" value: 1 } bias_filler { type: "constant" value: 0 } } }
layer { name: "inception_4c/relu_3x3" type: "ReLU" bottom: "inception_4c/3x3_bn" top: "inception_4c/3x3_bn" }
layer { name: "inception_4c/double_3x3_reduce" type: "Convolution" bottom: "inception_4b/output" top: "inception_4c/double_3x3_reduce"
  param { lr_mult: 0.1 decay_mult: 1 } param { lr_mult: 0.2 decay_mult: 0 }
  convolution_param { num_output: 128 kernel_size: 1
    weight_filler { type: "xavier" }
    bias_filler { type: "constant" value: 0.2 } } }
layer { name: "inception_4c/double_3x3_reduce_bn" type: "BN" bottom: "inception_4c/double_3x3_reduce" top: "inception_4c/double_3x3_reduce_bn"
  param { lr_mult: 0.1 decay_mult: 1 } param { lr_mult: 0.2 decay_mult: 0 }
  bn_param { frozen: true slope_filler { type: "constant" value: 1 } bias_filler { type: "constant" value: 0 } } }
layer { name: "inception_4c/relu_double_3x3_reduce" type: "ReLU" bottom: "inception_4c/double_3x3_reduce_bn" top: "inception_4c/double_3x3_reduce_bn" }
layer { name: "inception_4c/double_3x3_1" type: "Convolution" bottom: "inception_4c/double_3x3_reduce_bn" top: "inception_4c/double_3x3_1"
  param { lr_mult: 0.1 decay_mult: 1 } param { lr_mult: 0.2 decay_mult: 0 }
  convolution_param { num_output: 160 pad: 1 kernel_size: 3
    weight_filler { type: "xavier"}
    bias_filler { type: "constant" value: 0.2 } } }
layer { name: "inception_4c/double_3x3_1_bn" type: "BN" bottom: "inception_4c/double_3x3_1" top: "inception_4c/double_3x3_1_bn"
  param { lr_mult: 0.1 decay_mult: 1 } param { lr_mult: 0.2 decay_mult: 0 }
  bn_param { frozen: true slope_filler { type: "constant" value: 1 } bias_filler { type: "constant" value: 0 } } }
layer { name: "inception_4c/relu_double_3x3_1" type: "ReLU" bottom: "inception_4c/double_3x3_1_bn" top: "inception_4c/double_3x3_1_bn" }
layer { name: "inception_4c/double_3x3_2" type: "Convolution" bottom: "inception_4c/double_3x3_1_bn" top: "inception_4c/double_3x3_2"
  param { lr_mult: 0.1 decay_mult: 1 } param { lr_mult: 0.2 decay_mult: 0 }
  convolution_param { num_output: 160 pad: 1 kernel_size: 3
    weight_filler { type: "xavier"}
    bias_filler { type: "constant" value: 0.2 } } }
layer { name: "inception_4c/double_3x3_2_bn" type: "BN" bottom: "inception_4c/double_3x3_2" top: "inception_4c/double_3x3_2_bn"
  param { lr_mult: 0.1 decay_mult: 1 } param { lr_mult: 0.2 decay_mult: 0 }
  bn_param { frozen: true slope_filler { type: "constant" value: 1 } bias_filler { type: "constant" value: 0 } } }
layer { name: "inception_4c/relu_double_3x3_2" type: "ReLU" bottom: "inception_4c/double_3x3_2_bn" top: "inception_4c/double_3x3_2_bn" }
layer { name: "inception_4c/pool" type: "Pooling" bottom: "inception_4b/output" top: "inception_4c/pool"
  pooling_param { pool: AVE kernel_size: 3 stride: 1 pad: 1 } }
layer { name: "inception_4c/pool_proj" type: "Convolution" bottom: "inception_4c/pool" top: "inception_4c/pool_proj"
  param { lr_mult: 0.1 decay_mult: 1 } param { lr_mult: 0.2 decay_mult: 0 }
  convolution_param { num_output: 128 kernel_size: 1
    weight_filler { type: "xavier" }
    bias_filler { type: "constant" value: 0.2 } } }
layer { name: "inception_4c/pool_proj_bn" type: "BN" bottom: "inception_4c/pool_proj" top: "inception_4c/pool_proj_bn"
  param { lr_mult: 0.1 decay_mult: 1 } param { lr_mult: 0.2 decay_mult: 0 }
  bn_param { frozen: true slope_filler { type: "constant" value: 1 } bias_filler { type: "constant" value: 0 } } }
layer { name: "inception_4c/relu_pool_proj" type: "ReLU" bottom: "inception_4c/pool_proj_bn" top: "inception_4c/pool_proj_bn" }
layer { name: "inception_4c/output" type: "Concat"
  bottom: "inception_4c/1x1_bn"
  bottom: "inception_4c/3x3_bn"
  bottom: "inception_4c/double_3x3_2_bn"
  bottom: "inception_4c/pool_proj_bn"
  top: "inception_4c/output" }

####################################### inception_4d #######################################
layer { name: "inception_4d/1x1" type: "Convolution" bottom: "inception_4c/output" top: "inception_4d/1x1"
  param { lr_mult: 0.1 decay_mult: 1 } param { lr_mult: 0.2 decay_mult: 0 }
  convolution_param { num_output: 96 kernel_size: 1
    weight_filler { type: "xavier"}
    bias_filler { type: "constant" value: 0.2 } } }
layer { name: "inception_4d/1x1_bn" type: "BN" bottom: "inception_4d/1x1" top: "inception_4d/1x1_bn"
  param { lr_mult: 0.1 decay_mult: 1 } param { lr_mult: 0.2 decay_mult: 0 }
  bn_param { frozen: true slope_filler { type: "constant" value: 1 } bias_filler { type: "constant" value: 0 } } }
layer { name: "inception_4d/relu_1x1" type: "ReLU" bottom: "inception_4d/1x1_bn" top: "inception_4d/1x1_bn" }
layer { name: "inception_4d/3x3_reduce" type: "Convolution" bottom: "inception_4c/output" top: "inception_4d/3x3_reduce"
  param { lr_mult: 0.1 decay_mult: 1 } param { lr_mult: 0.2 decay_mult: 0 }
  convolution_param { num_output: 128 kernel_size: 1
    weight_filler { type: "xavier"}
    bias_filler { type: "constant" value: 0.2 } } }
layer { name: "inception_4d/3x3_reduce_bn" type: "BN" bottom: "inception_4d/3x3_reduce" top: "inception_4d/3x3_reduce_bn"
  param { lr_mult: 0.1 decay_mult: 1 } param { lr_mult: 0.2 decay_mult: 0 }
  bn_param { frozen: true slope_filler { type: "constant" value: 1 } bias_filler { type: "constant" value: 0 } } }
layer { name: "inception_4d/relu_3x3_reduce" type: "ReLU" bottom: "inception_4d/3x3_reduce_bn" top: "inception_4d/3x3_reduce_bn" }
layer { name: "inception_4d/3x3" type: "Convolution" bottom: "inception_4d/3x3_reduce_bn" top: "inception_4d/3x3"
  param { lr_mult: 0.1 decay_mult: 1 } param { lr_mult: 0.2 decay_mult: 0 }
  convolution_param { num_output: 192 pad: 1 kernel_size: 3
    weight_filler { type: "xavier" }
    bias_filler { type: "constant" value: 0.2 } } }
layer { name: "inception_4d/3x3_bn" type: "BN" bottom: "inception_4d/3x3" top: "inception_4d/3x3_bn"
  param { lr_mult: 0.1 decay_mult: 1 } param { lr_mult: 0.2 decay_mult: 0 }
  bn_param { frozen: true slope_filler { type: "constant" value: 1 } bias_filler { type: "constant" value: 0 } } }
layer { name: "inception_4d/relu_3x3" type: "ReLU" bottom: "inception_4d/3x3_bn" top: "inception_4d/3x3_bn" }
layer { name: "inception_4d/double_3x3_reduce" type: "Convolution" bottom: "inception_4c/output" top: "inception_4d/double_3x3_reduce"
  param { lr_mult: 0.1 decay_mult: 1 } param { lr_mult: 0.2 decay_mult: 0 }
  convolution_param { num_output: 160 kernel_size: 1
    weight_filler { type: "xavier" }
    bias_filler { type: "constant" value: 0.2 } } }
layer { name: "inception_4d/double_3x3_reduce_bn" type: "BN" bottom: "inception_4d/double_3x3_reduce" top: "inception_4d/double_3x3_reduce_bn"
  param { lr_mult: 0.1 decay_mult: 1 } param { lr_mult: 0.2 decay_mult: 0 }
  bn_param { frozen: true slope_filler { type: "constant" value: 1 } bias_filler { type: "constant" value: 0 } } }
layer { name: "inception_4d/relu_double_3x3_reduce" type: "ReLU" bottom: "inception_4d/double_3x3_reduce_bn" top: "inception_4d/double_3x3_reduce_bn" }
layer { name: "inception_4d/double_3x3_1" type: "Convolution" bottom: "inception_4d/double_3x3_reduce_bn" top: "inception_4d/double_3x3_1"
  param { lr_mult: 0.1 decay_mult: 1 } param { lr_mult: 0.2 decay_mult: 0 }
  convolution_param { num_output: 192 pad: 1 kernel_size: 3
    weight_filler { type: "xavier"}
    bias_filler { type: "constant" value: 0.2 } } }
layer { name: "inception_4d/double_3x3_1_bn" type: "BN" bottom: "inception_4d/double_3x3_1" top: "inception_4d/double_3x3_1_bn"
  param { lr_mult: 0.1 decay_mult: 1 } param { lr_mult: 0.2 decay_mult: 0 }
  bn_param { frozen: true slope_filler { type: "constant" value: 1 } bias_filler { type: "constant" value: 0 } } }
layer { name: "inception_4d/relu_double_3x3_1" type: "ReLU" bottom: "inception_4d/double_3x3_1_bn" top: "inception_4d/double_3x3_1_bn" }
layer { name: "inception_4d/double_3x3_2" type: "Convolution" bottom: "inception_4d/double_3x3_1_bn" top: "inception_4d/double_3x3_2"
  param { lr_mult: 0.1 decay_mult: 1 } param { lr_mult: 0.2 decay_mult: 0 }
  convolution_param { num_output: 192 pad: 1 kernel_size: 3
    weight_filler { type: "xavier"}
    bias_filler { type: "constant" value: 0.2 } } }
layer { name: "inception_4d/double_3x3_2_bn" type: "BN" bottom: "inception_4d/double_3x3_2" top: "inception_4d/double_3x3_2_bn"
  param { lr_mult: 0.1 decay_mult: 1 } param { lr_mult: 0.2 decay_mult: 0 }
  bn_param { frozen: true slope_filler { type: "constant" value: 1 } bias_filler { type: "constant" value: 0 } } }
layer { name: "inception_4d/relu_double_3x3_2" type: "ReLU" bottom: "inception_4d/double_3x3_2_bn" top: "inception_4d/double_3x3_2_bn" }
layer { name: "inception_4d/pool" type: "Pooling" bottom: "inception_4c/output" top: "inception_4d/pool"
  pooling_param { pool: AVE kernel_size: 3 stride: 1 pad: 1 } }
layer { name: "inception_4d/pool_proj" type: "Convolution" bottom: "inception_4d/pool" top: "inception_4d/pool_proj"
  param { lr_mult: 0.1 decay_mult: 1 } param { lr_mult: 0.2 decay_mult: 0 }
  convolution_param { num_output: 128 kernel_size: 1
    weight_filler { type: "xavier" }
    bias_filler { type: "constant" value: 0.2 } } }
layer { name: "inception_4d/pool_proj_bn" type: "BN" bottom: "inception_4d/pool_proj" top: "inception_4d/pool_proj_bn"
  param { lr_mult: 0.1 decay_mult: 1 } param { lr_mult: 0.2 decay_mult: 0 }
  bn_param { frozen: true slope_filler { type: "constant" value: 1 } bias_filler { type: "constant" value: 0 } } }
layer { name: "inception_4d/relu_pool_proj" type: "ReLU" bottom: "inception_4d/pool_proj_bn" top: "inception_4d/pool_proj_bn" }
layer { name: "inception_4d/output" type: "Concat"
  bottom: "inception_4d/1x1_bn"
  bottom: "inception_4d/3x3_bn"
  bottom: "inception_4d/double_3x3_2_bn"
  bottom: "inception_4d/pool_proj_bn"
  top: "inception_4d/output" }

####################################### inception_4e #######################################
layer { name: "inception_4e/3x3_reduce" type: "Convolution" bottom: "inception_4d/output" top: "inception_4e/3x3_reduce"
  param { lr_mult: 0.1 decay_mult: 1 } param { lr_mult: 0.2 decay_mult: 0 }
  convolution_param { num_output: 128 kernel_size: 1
    weight_filler { type: "xavier"}
    bias_filler { type: "constant" value: 0.2 } } }
layer { name: "inception_4e/3x3_reduce_bn" type: "BN" bottom: "inception_4e/3x3_reduce" top: "inception_4e/3x3_reduce_bn"
  param { lr_mult: 0.1 decay_mult: 1 } param { lr_mult: 0.2 decay_mult: 0 }
  bn_param { frozen: true slope_filler { type: "constant" value: 1 } bias_filler { type: "constant" value: 0 } } }
layer { name: "inception_4e/relu_3x3_reduce" type: "ReLU" bottom: "inception_4e/3x3_reduce_bn" top: "inception_4e/3x3_reduce_bn" }
layer { name: "inception_4e/3x3" type: "Convolution" bottom: "inception_4e/3x3_reduce_bn" top: "inception_4e/3x3"
  param { lr_mult: 0.1 decay_mult: 1 } param { lr_mult: 0.2 decay_mult: 0 }
  convolution_param { num_output: 192 pad: 1 kernel_size: 3 stride: 2
    weight_filler { type: "xavier" }
    bias_filler { type: "constant" value: 0.2 } } }
layer { name: "inception_4e/3x3_bn" type: "BN" bottom: "inception_4e/3x3" top: "inception_4e/3x3_bn"
  param { lr_mult: 0.1 decay_mult: 1 } param { lr_mult: 0.2 decay_mult: 0 }
  bn_param { frozen: true slope_filler { type: "constant" value: 1 } bias_filler { type: "constant" value: 0 } } }
layer { name: "inception_4e/relu_3x3" type: "ReLU" bottom: "inception_4e/3x3_bn" top: "inception_4e/3x3_bn" }
layer { name: "inception_4e/double_3x3_reduce" type: "Convolution" bottom: "inception_4d/output" top: "inception_4e/double_3x3_reduce"
  param { lr_mult: 0.1 decay_mult: 1 } param { lr_mult: 0.2 decay_mult: 0 }
  convolution_param { num_output: 192 kernel_size: 1
    weight_filler { type: "xavier" }
    bias_filler { type: "constant" value: 0.2 } } }
layer { name: "inception_4e/double_3x3_reduce_bn" type: "BN" bottom: "inception_4e/double_3x3_reduce" top: "inception_4e/double_3x3_reduce_bn"
  param { lr_mult: 0.1 decay_mult: 1 } param { lr_mult: 0.2 decay_mult: 0 }
  bn_param { frozen: true slope_filler { type: "constant" value: 1 } bias_filler { type: "constant" value: 0 } } }
layer { name: "inception_4e/relu_double_3x3_reduce" type: "ReLU" bottom: "inception_4e/double_3x3_reduce_bn" top: "inception_4e/double_3x3_reduce_bn" }
layer { name: "inception_4e/double_3x3_1" type: "Convolution" bottom: "inception_4e/double_3x3_reduce_bn" top: "inception_4e/double_3x3_1"
  param { lr_mult: 0.1 decay_mult: 1 } param { lr_mult: 0.2 decay_mult: 0 }
  convolution_param { num_output: 256 pad: 1 kernel_size: 3
    weight_filler { type: "xavier"}
    bias_filler { type: "constant" value: 0.2 } } }
layer { name: "inception_4e/double_3x3_1_bn" type: "BN" bottom: "inception_4e/double_3x3_1" top: "inception_4e/double_3x3_1_bn"
  param { lr_mult: 0.1 decay_mult: 1 } param { lr_mult: 0.2 decay_mult: 0 }
  bn_param { frozen: true slope_filler { type: "constant" value: 1 } bias_filler { type: "constant" value: 0 } } }
layer { name: "inception_4e/relu_double_3x3_1" type: "ReLU" bottom: "inception_4e/double_3x3_1_bn" top: "inception_4e/double_3x3_1_bn" }
layer { name: "inception_4e/double_3x3_2" type: "Convolution" bottom: "inception_4e/double_3x3_1_bn" top: "inception_4e/double_3x3_2"
  param { lr_mult: 0.1 decay_mult: 1 } param { lr_mult: 0.2 decay_mult: 0 }
  convolution_param { num_output: 256 pad: 1 kernel_size: 3 stride: 2
    weight_filler { type: "xavier"}
    bias_filler { type: "constant" value: 0.2 } } }
layer { name: "inception_4e/double_3x3_2_bn" type: "BN" bottom: "inception_4e/double_3x3_2" top: "inception_4e/double_3x3_2_bn"
  param { lr_mult: 0.1 decay_mult: 1 } param { lr_mult: 0.2 decay_mult: 0 }
  bn_param { frozen: true slope_filler { type: "constant" value: 1 } bias_filler { type: "constant" value: 0 } } }
layer { name: "inception_4e/relu_double_3x3_2" type: "ReLU" bottom: "inception_4e/double_3x3_2_bn" top: "inception_4e/double_3x3_2_bn" }
layer { name: "inception_4e/pool" type: "Pooling" bottom: "inception_4d/output" top: "inception_4e/pool"
  pooling_param { pool: MAX kernel_size: 3 stride: 2 } }
layer { name: "inception_4e/output" type: "Concat"
  bottom: "inception_4e/3x3_bn"
  bottom: "inception_4e/double_3x3_2_bn"
  bottom: "inception_4e/pool"
  top: "inception_4e/output" }

####################################### inception_5a #######################################
layer { name: "inception_5a/1x1" type: "Convolution" bottom: "inception_4e/output" top: "inception_5a/1x1"
  param { lr_mult: 0.1 decay_mult: 1 } param { lr_mult: 0.2 decay_mult: 0 }
  convolution_param { num_output: 352 kernel_size: 1
    weight_filler { type: "xavier"}
    bias_filler { type: "constant" value: 0.2 } } }
layer { name: "inception_5a/1x1_bn" type: "BN" bottom: "inception_5a/1x1" top: "inception_5a/1x1_bn"
  param { lr_mult: 0.1 decay_mult: 1 } param { lr_mult: 0.2 decay_mult: 0 }
  bn_param { frozen: true slope_filler { type: "constant" value: 1 } bias_filler { type: "constant" value: 0 } } }
layer { name: "inception_5a/relu_1x1" type: "ReLU" bottom: "inception_5a/1x1_bn" top: "inception_5a/1x1_bn" }
layer { name: "inception_5a/3x3_reduce" type: "Convolution" bottom: "inception_4e/output" top: "inception_5a/3x3_reduce"
  param { lr_mult: 0.1 decay_mult: 1 } param { lr_mult: 0.2 decay_mult: 0 }
  convolution_param { num_output: 192 kernel_size: 1
    weight_filler { type: "xavier"}
    bias_filler { type: "constant" value: 0.2 } } }
layer { name: "inception_5a/3x3_reduce_bn" type: "BN" bottom: "inception_5a/3x3_reduce" top: "inception_5a/3x3_reduce_bn"
  param { lr_mult: 0.1 decay_mult: 1 } param { lr_mult: 0.2 decay_mult: 0 }
  bn_param { frozen: true slope_filler { type: "constant" value: 1 } bias_filler { type: "constant" value: 0 } } }
layer { name: "inception_5a/relu_3x3_reduce" type: "ReLU" bottom: "inception_5a/3x3_reduce_bn" top: "inception_5a/3x3_reduce_bn" }
layer { name: "inception_5a/3x3" type: "Convolution" bottom: "inception_5a/3x3_reduce_bn" top: "inception_5a/3x3"
  param { lr_mult: 0.1 decay_mult: 1 } param { lr_mult: 0.2 decay_mult: 0 }
  convolution_param { num_output: 320 pad: 1 kernel_size: 3
    weight_filler { type: "xavier" }
    bias_filler { type: "constant" value: 0.2 } } }
layer { name: "inception_5a/3x3_bn" type: "BN" bottom: "inception_5a/3x3" top: "inception_5a/3x3_bn"
  param { lr_mult: 0.1 decay_mult: 1 } param { lr_mult: 0.2 decay_mult: 0 }
  bn_param { frozen: true slope_filler { type: "constant" value: 1 } bias_filler { type: "constant" value: 0 } } }
layer { name: "inception_5a/relu_3x3" type: "ReLU" bottom: "inception_5a/3x3_bn" top: "inception_5a/3x3_bn" }
layer { name: "inception_5a/double_3x3_reduce" type: "Convolution" bottom: "inception_4e/output" top: "inception_5a/double_3x3_reduce"
  param { lr_mult: 0.1 decay_mult: 1 } param { lr_mult: 0.2 decay_mult: 0 }
  convolution_param { num_output: 160 kernel_size: 1
    weight_filler { type: "xavier" }
    bias_filler { type: "constant" value: 0.2 } } }
layer { name: "inception_5a/double_3x3_reduce_bn" type: "BN" bottom: "inception_5a/double_3x3_reduce" top: "inception_5a/double_3x3_reduce_bn"
  param { lr_mult: 0.1 decay_mult: 1 } param { lr_mult: 0.2 decay_mult: 0 }
  bn_param { frozen: true slope_filler { type: "constant" value: 1 } bias_filler { type: "constant" value: 0 } } }
layer { name: "inception_5a/relu_double_3x3_reduce" type: "ReLU" bottom: "inception_5a/double_3x3_reduce_bn" top: "inception_5a/double_3x3_reduce_bn" }
layer { name: "inception_5a/double_3x3_1" type: "Convolution" bottom: "inception_5a/double_3x3_reduce_bn" top: "inception_5a/double_3x3_1"
  param { lr_mult: 0.1 decay_mult: 1 } param { lr_mult: 0.2 decay_mult: 0 }
  convolution_param { num_output: 224 pad: 1 kernel_size: 3
    weight_filler { type: "xavier"}
    bias_filler { type: "constant" value: 0.2 } } }
layer { name: "inception_5a/double_3x3_1_bn" type: "BN" bottom: "inception_5a/double_3x3_1" top: "inception_5a/double_3x3_1_bn"
  param { lr_mult: 0.1 decay_mult: 1 } param { lr_mult: 0.2 decay_mult: 0 }
  bn_param { frozen: true slope_filler { type: "constant" value: 1 } bias_filler { type: "constant" value: 0 } } }
layer { name: "inception_5a/relu_double_3x3_1" type: "ReLU" bottom: "inception_5a/double_3x3_1_bn" top: "inception_5a/double_3x3_1_bn" }
layer { name: "inception_5a/double_3x3_2" type: "Convolution" bottom: "inception_5a/double_3x3_1_bn" top: "inception_5a/double_3x3_2"
  param { lr_mult: 0.1 decay_mult: 1 } param { lr_mult: 0.2 decay_mult: 0 }
  convolution_param { num_output: 224 pad: 1 kernel_size: 3
    weight_filler { type: "xavier"}
    bias_filler { type: "constant" value: 0.2 } } }
layer { name: "inception_5a/double_3x3_2_bn" type: "BN" bottom: "inception_5a/double_3x3_2" top: "inception_5a/double_3x3_2_bn"
  param { lr_mult: 0.1 decay_mult: 1 } param { lr_mult: 0.2 decay_mult: 0 }
  bn_param { frozen: true slope_filler { type: "constant" value: 1 } bias_filler { type: "constant" value: 0 } } }
layer { name: "inception_5a/relu_double_3x3_2" type: "ReLU" bottom: "inception_5a/double_3x3_2_bn" top: "inception_5a/double_3x3_2_bn" }
layer { name: "inception_5a/pool" type: "Pooling" bottom: "inception_4e/output" top: "inception_5a/pool"
  pooling_param { pool: AVE kernel_size: 3 stride: 1 pad: 1 } }
layer { name: "inception_5a/pool_proj" type: "Convolution" bottom: "inception_5a/pool" top: "inception_5a/pool_proj"
  param { lr_mult: 0.1 decay_mult: 1 } param { lr_mult: 0.2 decay_mult: 0 }
  convolution_param { num_output: 128 kernel_size: 1
    weight_filler { type: "xavier" }
    bias_filler { type: "constant" value: 0.2 } } }
layer { name: "inception_5a/pool_proj_bn" type: "BN" bottom: "inception_5a/pool_proj" top: "inception_5a/pool_proj_bn"
  param { lr_mult: 0.1 decay_mult: 1 } param { lr_mult: 0.2 decay_mult: 0 }
  bn_param { frozen: true slope_filler { type: "constant" value: 1 } bias_filler { type: "constant" value: 0 } } }
layer { name: "inception_5a/relu_pool_proj" type: "ReLU" bottom: "inception_5a/pool_proj_bn" top: "inception_5a/pool_proj_bn" }
layer { name: "inception_5a/output" type: "Concat"
  bottom: "inception_5a/1x1_bn"
  bottom: "inception_5a/3x3_bn"
  bottom: "inception_5a/double_3x3_2_bn"
  bottom: "inception_5a/pool_proj_bn"
  top: "inception_5a/output" }

####################################### inception_5b #######################################
layer { name: "inception_5b/1x1" type: "Convolution" bottom: "inception_5a/output" top: "inception_5b/1x1"
  param { lr_mult: 0.1 decay_mult: 1 } param { lr_mult: 0.2 decay_mult: 0 }
  convolution_param { num_output: 352 kernel_size: 1
    weight_filler { type: "xavier"}
    bias_filler { type: "constant" value: 0.2 } } }
layer { name: "inception_5b/1x1_bn" type: "BN" bottom: "inception_5b/1x1" top: "inception_5b/1x1_bn"
  param { lr_mult: 0.1 decay_mult: 1 } param { lr_mult: 0.2 decay_mult: 0 }
  bn_param { frozen: true slope_filler { type: "constant" value: 1 } bias_filler { type: "constant" value: 0 } } }
layer { name: "inception_5b/relu_1x1" type: "ReLU" bottom: "inception_5b/1x1_bn" top: "inception_5b/1x1_bn" }
layer { name: "inception_5b/3x3_reduce" type: "Convolution" bottom: "inception_5a/output" top: "inception_5b/3x3_reduce"
  param { lr_mult: 0.1 decay_mult: 1 } param { lr_mult: 0.2 decay_mult: 0 }
  convolution_param { num_output: 192 kernel_size: 1
    weight_filler { type: "xavier"}
    bias_filler { type: "constant" value: 0.2 } } }
layer { name: "inception_5b/3x3_reduce_bn" type: "BN" bottom: "inception_5b/3x3_reduce" top: "inception_5b/3x3_reduce_bn"
  param { lr_mult: 0.1 decay_mult: 1 } param { lr_mult: 0.2 decay_mult: 0 }
  bn_param { frozen: true slope_filler { type: "constant" value: 1 } bias_filler { type: "constant" value: 0 } } }
layer { name: "inception_5b/relu_3x3_reduce" type: "ReLU" bottom: "inception_5b/3x3_reduce_bn" top: "inception_5b/3x3_reduce_bn" }
layer { name: "inception_5b/3x3" type: "Convolution" bottom: "inception_5b/3x3_reduce_bn" top: "inception_5b/3x3"
  param { lr_mult: 0.1 decay_mult: 1 } param { lr_mult: 0.2 decay_mult: 0 }
  convolution_param { num_output: 320 pad: 1 kernel_size: 3
    weight_filler { type: "xavier" }
    bias_filler { type: "constant" value: 0.2 } } }
layer { name: "inception_5b/3x3_bn" type: "BN" bottom: "inception_5b/3x3" top: "inception_5b/3x3_bn"
  param { lr_mult: 0.1 decay_mult: 1 } param { lr_mult: 0.2 decay_mult: 0 }
  bn_param { frozen: true slope_filler { type: "constant" value: 1 } bias_filler { type: "constant" value: 0 } } }
layer { name: "inception_5b/relu_3x3" type: "ReLU" bottom: "inception_5b/3x3_bn" top: "inception_5b/3x3_bn" }
layer { name: "inception_5b/double_3x3_reduce" type: "Convolution" bottom: "inception_5a/output" top: "inception_5b/double_3x3_reduce"
  param { lr_mult: 0.1 decay_mult: 1 } param { lr_mult: 0.2 decay_mult: 0 }
  convolution_param { num_output: 192 kernel_size: 1
    weight_filler { type: "xavier" }
    bias_filler { type: "constant" value: 0.2 } } }
layer { name: "inception_5b/double_3x3_reduce_bn" type: "BN" bottom: "inception_5b/double_3x3_reduce" top: "inception_5b/double_3x3_reduce_bn"
  param { lr_mult: 0.1 decay_mult: 1 } param { lr_mult: 0.2 decay_mult: 0 }
  bn_param { frozen: true slope_filler { type: "constant" value: 1 } bias_filler { type: "constant" value: 0 } } }
layer { name: "inception_5b/relu_double_3x3_reduce" type: "ReLU" bottom: "inception_5b/double_3x3_reduce_bn" top: "inception_5b/double_3x3_reduce_bn" }
layer { name: "inception_5b/double_3x3_1" type: "Convolution" bottom: "inception_5b/double_3x3_reduce_bn" top: "inception_5b/double_3x3_1"
  param { lr_mult: 0.1 decay_mult: 1 } param { lr_mult: 0.2 decay_mult: 0 }
  convolution_param { num_output: 224 pad: 1 kernel_size: 3
    weight_filler { type: "xavier"}
    bias_filler { type: "constant" value: 0.2 } } }
layer { name: "inception_5b/double_3x3_1_bn" type: "BN" bottom: "inception_5b/double_3x3_1" top: "inception_5b/double_3x3_1_bn"
  param { lr_mult: 0.1 decay_mult: 1 } param { lr_mult: 0.2 decay_mult: 0 }
  bn_param { frozen: true slope_filler { type: "constant" value: 1 } bias_filler { type: "constant" value: 0 } } }
layer { name: "inception_5b/relu_double_3x3_1" type: "ReLU" bottom: "inception_5b/double_3x3_1_bn" top: "inception_5b/double_3x3_1_bn" }
layer { name: "inception_5b/double_3x3_2" type: "Convolution" bottom: "inception_5b/double_3x3_1_bn" top: "inception_5b/double_3x3_2"
  param { lr_mult: 0.1 decay_mult: 1 } param { lr_mult: 0.2 decay_mult: 0 }
  convolution_param { num_output: 224 pad: 1 kernel_size: 3
    weight_filler { type: "xavier"}
    bias_filler { type: "constant" value: 0.2 } } }
layer { name: "inception_5b/double_3x3_2_bn" type: "BN" bottom: "inception_5b/double_3x3_2" top: "inception_5b/double_3x3_2_bn"
  param { lr_mult: 0.1 decay_mult: 1 } param { lr_mult: 0.2 decay_mult: 0 }
  bn_param { frozen: true slope_filler { type: "constant" value: 1 } bias_filler { type: "constant" value: 0 } } }
layer { name: "inception_5b/relu_double_3x3_2" type: "ReLU" bottom: "inception_5b/double_3x3_2_bn" top: "inception_5b/double_3x3_2_bn" }
layer { name: "inception_5b/pool" type: "Pooling" bottom: "inception_5a/output" top: "inception_5b/pool"
  pooling_param { pool: MAX kernel_size: 3 stride: 1 pad: 1 } }
layer { name: "inception_5b/pool_proj" type: "Convolution" bottom: "inception_5b/pool" top: "inception_5b/pool_proj"
  param { lr_mult: 0.1 decay_mult: 1 } param { lr_mult: 0.2 decay_mult: 0 }
  convolution_param { num_output: 128 kernel_size: 1
    weight_filler { type: "xavier" }
    bias_filler { type: "constant" value: 0.2 } } }
layer { name: "inception_5b/pool_proj_bn" type: "BN" bottom: "inception_5b/pool_proj" top: "inception_5b/pool_proj_bn"
  param { lr_mult: 0.1 decay_mult: 1 } param { lr_mult: 0.2 decay_mult: 0 }
  bn_param { frozen: true slope_filler { type: "constant" value: 1 } bias_filler { type: "constant" value: 0 } } }
layer { name: "inception_5b/relu_pool_proj" type: "ReLU" bottom: "inception_5b/pool_proj_bn" top: "inception_5b/pool_proj_bn" }
layer { name: "inception_5b/output" type: "Concat"
  bottom: "inception_5b/1x1_bn"
  bottom: "inception_5b/3x3_bn"
  bottom: "inception_5b/double_3x3_2_bn"
  bottom: "inception_5b/pool_proj_bn"
  top: "inception_5b/output" }

####################################### global pool #######################################
layer { name: "global_pool" top: "global_pool" bottom: "inception_5b/output" type: "Pooling"
  pooling_param { pool: AVE kernel_size: 7 stride: 1 } }
layer { name: "dropout" top: "global_pool" bottom: "global_pool" type: "Dropout"
 dropout_param { dropout_ratio: 0.5 } }
####################################### loss accuracy #######################################
layer {
  name: "ip0"
  type: "InnerProduct"
  bottom: "global_pool"
  top: "ip0"
  param {
    lr_mult: 1
    decay_mult: 1
  }
  param {
    lr_mult: 2
    decay_mult: 0
  }
  inner_product_param {
    num_output: 2
    weight_filler {
      type: "gaussian"
      std: 0.001
    }
    bias_filler {
      type: "constant"
      value: 0
    }
  }
}
layer {
  name: "rs0"
  type: "Reshape"
  bottom: "ip0"
  top: "rs0"
  reshape_param {
    shape {
      dim: -1
      dim: 1
      dim: 3
      dim: 2
    }
  }
}
layer {
  name: "pl0"
  type: "Pooling"
  bottom: "rs0"
  top: "pl0"
  pooling_param {
    pool: AVE
    kernel_h: 3
    kernel_w: 1
  }
}
layer {
  name: "ECOC_acc0"
  type: "Accuracy"
  bottom: "pl0"
  bottom: "ECOC0"
  top: "ECOC_acc0"
  accuracy_param {
    axis: 3
  }
}
layer {
  name: "rspl0"
  type: "Reshape"
  bottom: "pl0"
  top: "rspl0"
  reshape_param {
    shape {
      dim: -1
      dim: 2
    }
  }
}
layer {
  name: "Argmax0"
  type: "ArgMax"
  bottom: "rspl0"
  top: "Argmax0"
  argmax_param {
    
  }
}
layer {
  name: "ls0"
  type: "SoftmaxWithLoss"
  bottom: "rspl0"
  bottom: "ECOC0"
  top: "ls0"
}
layer {
  name: "ip1"
  type: "InnerProduct"
  bottom: "global_pool"
  top: "ip1"
  param {
    lr_mult: 1
    decay_mult: 1
  }
  param {
    lr_mult: 2
    decay_mult: 0
  }
  inner_product_param {
    num_output: 2
    weight_filler {
      type: "gaussian"
      std: 0.001
    }
    bias_filler {
      type: "constant"
      value: 0
    }
  }
}
layer {
  name: "rs1"
  type: "Reshape"
  bottom: "ip1"
  top: "rs1"
  reshape_param {
    shape {
      dim: -1
      dim: 1
      dim: 3
      dim: 2
    }
  }
}
layer {
  name: "pl1"
  type: "Pooling"
  bottom: "rs1"
  top: "pl1"
  pooling_param {
    pool: AVE
    kernel_h: 3
    kernel_w: 1
  }
}
layer {
  name: "ECOC_acc1"
  type: "Accuracy"
  bottom: "pl1"
  bottom: "ECOC1"
  top: "ECOC_acc1"
  accuracy_param {
    axis: 3
  }
}
layer {
  name: "rspl1"
  type: "Reshape"
  bottom: "pl1"
  top: "rspl1"
  reshape_param {
    shape {
      dim: -1
      dim: 2
    }
  }
}
layer {
  name: "Argmax1"
  type: "ArgMax"
  bottom: "rspl1"
  top: "Argmax1"
  argmax_param {
    
  }
}
layer {
  name: "ls1"
  type: "SoftmaxWithLoss"
  bottom: "rspl1"
  bottom: "ECOC1"
  top: "ls1"
}
layer {
  name: "ip2"
  type: "InnerProduct"
  bottom: "global_pool"
  top: "ip2"
  param {
    lr_mult: 1
    decay_mult: 1
  }
  param {
    lr_mult: 2
    decay_mult: 0
  }
  inner_product_param {
    num_output: 2
    weight_filler {
      type: "gaussian"
      std: 0.001
    }
    bias_filler {
      type: "constant"
      value: 0
    }
  }
}
layer {
  name: "rs2"
  type: "Reshape"
  bottom: "ip2"
  top: "rs2"
  reshape_param {
    shape {
      dim: -1
      dim: 1
      dim: 3
      dim: 2
    }
  }
}
layer {
  name: "pl2"
  type: "Pooling"
  bottom: "rs2"
  top: "pl2"
  pooling_param {
    pool: AVE
    kernel_h: 3
    kernel_w: 1
  }
}
layer {
  name: "ECOC_acc2"
  type: "Accuracy"
  bottom: "pl2"
  bottom: "ECOC2"
  top: "ECOC_acc2"
  accuracy_param {
    axis: 3
  }
}
layer {
  name: "rspl2"
  type: "Reshape"
  bottom: "pl2"
  top: "rspl2"
  reshape_param {
    shape {
      dim: -1
      dim: 2
    }
  }
}
layer {
  name: "Argmax2"
  type: "ArgMax"
  bottom: "rspl2"
  top: "Argmax2"
  argmax_param {
    
  }
}
layer {
  name: "ls2"
  type: "SoftmaxWithLoss"
  bottom: "rspl2"
  bottom: "ECOC2"
  top: "ls2"
}
layer {
  name: "ip3"
  type: "InnerProduct"
  bottom: "global_pool"
  top: "ip3"
  param {
    lr_mult: 1
    decay_mult: 1
  }
  param {
    lr_mult: 2
    decay_mult: 0
  }
  inner_product_param {
    num_output: 2
    weight_filler {
      type: "gaussian"
      std: 0.001
    }
    bias_filler {
      type: "constant"
      value: 0
    }
  }
}
layer {
  name: "rs3"
  type: "Reshape"
  bottom: "ip3"
  top: "rs3"
  reshape_param {
    shape {
      dim: -1
      dim: 1
      dim: 3
      dim: 2
    }
  }
}
layer {
  name: "pl3"
  type: "Pooling"
  bottom: "rs3"
  top: "pl3"
  pooling_param {
    pool: AVE
    kernel_h: 3
    kernel_w: 1
  }
}
layer {
  name: "ECOC_acc3"
  type: "Accuracy"
  bottom: "pl3"
  bottom: "ECOC3"
  top: "ECOC_acc3"
  accuracy_param {
    axis: 3
  }
}
layer {
  name: "rspl3"
  type: "Reshape"
  bottom: "pl3"
  top: "rspl3"
  reshape_param {
    shape {
      dim: -1
      dim: 2
    }
  }
}
layer {
  name: "Argmax3"
  type: "ArgMax"
  bottom: "rspl3"
  top: "Argmax3"
  argmax_param {
    
  }
}
layer {
  name: "ls3"
  type: "SoftmaxWithLoss"
  bottom: "rspl3"
  bottom: "ECOC3"
  top: "ls3"
}
layer {
  name: "ip4"
  type: "InnerProduct"
  bottom: "global_pool"
  top: "ip4"
  param {
    lr_mult: 1
    decay_mult: 1
  }
  param {
    lr_mult: 2
    decay_mult: 0
  }
  inner_product_param {
    num_output: 2
    weight_filler {
      type: "gaussian"
      std: 0.001
    }
    bias_filler {
      type: "constant"
      value: 0
    }
  }
}
layer {
  name: "rs4"
  type: "Reshape"
  bottom: "ip4"
  top: "rs4"
  reshape_param {
    shape {
      dim: -1
      dim: 1
      dim: 3
      dim: 2
    }
  }
}
layer {
  name: "pl4"
  type: "Pooling"
  bottom: "rs4"
  top: "pl4"
  pooling_param {
    pool: AVE
    kernel_h: 3
    kernel_w: 1
  }
}
layer {
  name: "ECOC_acc4"
  type: "Accuracy"
  bottom: "pl4"
  bottom: "ECOC4"
  top: "ECOC_acc4"
  accuracy_param {
    axis: 3
  }
}
layer {
  name: "rspl4"
  type: "Reshape"
  bottom: "pl4"
  top: "rspl4"
  reshape_param {
    shape {
      dim: -1
      dim: 2
    }
  }
}
layer {
  name: "Argmax4"
  type: "ArgMax"
  bottom: "rspl4"
  top: "Argmax4"
  argmax_param {
    
  }
}
layer {
  name: "ls4"
  type: "SoftmaxWithLoss"
  bottom: "rspl4"
  bottom: "ECOC4"
  top: "ls4"
}
layer {
  name: "ip5"
  type: "InnerProduct"
  bottom: "global_pool"
  top: "ip5"
  param {
    lr_mult: 1
    decay_mult: 1
  }
  param {
    lr_mult: 2
    decay_mult: 0
  }
  inner_product_param {
    num_output: 2
    weight_filler {
      type: "gaussian"
      std: 0.001
    }
    bias_filler {
      type: "constant"
      value: 0
    }
  }
}
layer {
  name: "rs5"
  type: "Reshape"
  bottom: "ip5"
  top: "rs5"
  reshape_param {
    shape {
      dim: -1
      dim: 1
      dim: 3
      dim: 2
    }
  }
}
layer {
  name: "pl5"
  type: "Pooling"
  bottom: "rs5"
  top: "pl5"
  pooling_param {
    pool: AVE
    kernel_h: 3
    kernel_w: 1
  }
}
layer {
  name: "ECOC_acc5"
  type: "Accuracy"
  bottom: "pl5"
  bottom: "ECOC5"
  top: "ECOC_acc5"
  accuracy_param {
    axis: 3
  }
}
layer {
  name: "rspl5"
  type: "Reshape"
  bottom: "pl5"
  top: "rspl5"
  reshape_param {
    shape {
      dim: -1
      dim: 2
    }
  }
}
layer {
  name: "Argmax5"
  type: "ArgMax"
  bottom: "rspl5"
  top: "Argmax5"
  argmax_param {
    
  }
}
layer {
  name: "ls5"
  type: "SoftmaxWithLoss"
  bottom: "rspl5"
  bottom: "ECOC5"
  top: "ls5"
}
layer {
  name: "ip6"
  type: "InnerProduct"
  bottom: "global_pool"
  top: "ip6"
  param {
    lr_mult: 1
    decay_mult: 1
  }
  param {
    lr_mult: 2
    decay_mult: 0
  }
  inner_product_param {
    num_output: 2
    weight_filler {
      type: "gaussian"
      std: 0.001
    }
    bias_filler {
      type: "constant"
      value: 0
    }
  }
}
layer {
  name: "rs6"
  type: "Reshape"
  bottom: "ip6"
  top: "rs6"
  reshape_param {
    shape {
      dim: -1
      dim: 1
      dim: 3
      dim: 2
    }
  }
}
layer {
  name: "pl6"
  type: "Pooling"
  bottom: "rs6"
  top: "pl6"
  pooling_param {
    pool: AVE
    kernel_h: 3
    kernel_w: 1
  }
}
layer {
  name: "ECOC_acc6"
  type: "Accuracy"
  bottom: "pl6"
  bottom: "ECOC6"
  top: "ECOC_acc6"
  accuracy_param {
    axis: 3
  }
}
layer {
  name: "rspl6"
  type: "Reshape"
  bottom: "pl6"
  top: "rspl6"
  reshape_param {
    shape {
      dim: -1
      dim: 2
    }
  }
}
layer {
  name: "Argmax6"
  type: "ArgMax"
  bottom: "rspl6"
  top: "Argmax6"
  argmax_param {
    
  }
}
layer {
  name: "ls6"
  type: "SoftmaxWithLoss"
  bottom: "rspl6"
  bottom: "ECOC6"
  top: "ls6"
}
layer {
  name: "ip7"
  type: "InnerProduct"
  bottom: "global_pool"
  top: "ip7"
  param {
    lr_mult: 1
    decay_mult: 1
  }
  param {
    lr_mult: 2
    decay_mult: 0
  }
  inner_product_param {
    num_output: 2
    weight_filler {
      type: "gaussian"
      std: 0.001
    }
    bias_filler {
      type: "constant"
      value: 0
    }
  }
}
layer {
  name: "rs7"
  type: "Reshape"
  bottom: "ip7"
  top: "rs7"
  reshape_param {
    shape {
      dim: -1
      dim: 1
      dim: 3
      dim: 2
    }
  }
}
layer {
  name: "pl7"
  type: "Pooling"
  bottom: "rs7"
  top: "pl7"
  pooling_param {
    pool: AVE
    kernel_h: 3
    kernel_w: 1
  }
}
layer {
  name: "ECOC_acc7"
  type: "Accuracy"
  bottom: "pl7"
  bottom: "ECOC7"
  top: "ECOC_acc7"
  accuracy_param {
    axis: 3
  }
}
layer {
  name: "rspl7"
  type: "Reshape"
  bottom: "pl7"
  top: "rspl7"
  reshape_param {
    shape {
      dim: -1
      dim: 2
    }
  }
}
layer {
  name: "Argmax7"
  type: "ArgMax"
  bottom: "rspl7"
  top: "Argmax7"
  argmax_param {
    
  }
}
layer {
  name: "ls7"
  type: "SoftmaxWithLoss"
  bottom: "rspl7"
  bottom: "ECOC7"
  top: "ls7"
}
layer {
  name: "ip8"
  type: "InnerProduct"
  bottom: "global_pool"
  top: "ip8"
  param {
    lr_mult: 1
    decay_mult: 1
  }
  param {
    lr_mult: 2
    decay_mult: 0
  }
  inner_product_param {
    num_output: 2
    weight_filler {
      type: "gaussian"
      std: 0.001
    }
    bias_filler {
      type: "constant"
      value: 0
    }
  }
}
layer {
  name: "rs8"
  type: "Reshape"
  bottom: "ip8"
  top: "rs8"
  reshape_param {
    shape {
      dim: -1
      dim: 1
      dim: 3
      dim: 2
    }
  }
}
layer {
  name: "pl8"
  type: "Pooling"
  bottom: "rs8"
  top: "pl8"
  pooling_param {
    pool: AVE
    kernel_h: 3
    kernel_w: 1
  }
}
layer {
  name: "ECOC_acc8"
  type: "Accuracy"
  bottom: "pl8"
  bottom: "ECOC8"
  top: "ECOC_acc8"
  accuracy_param {
    axis: 3
  }
}
layer {
  name: "rspl8"
  type: "Reshape"
  bottom: "pl8"
  top: "rspl8"
  reshape_param {
    shape {
      dim: -1
      dim: 2
    }
  }
}
layer {
  name: "Argmax8"
  type: "ArgMax"
  bottom: "rspl8"
  top: "Argmax8"
  argmax_param {
    
  }
}
layer {
  name: "ls8"
  type: "SoftmaxWithLoss"
  bottom: "rspl8"
  bottom: "ECOC8"
  top: "ls8"
}
layer {
  name: "ip9"
  type: "InnerProduct"
  bottom: "global_pool"
  top: "ip9"
  param {
    lr_mult: 1
    decay_mult: 1
  }
  param {
    lr_mult: 2
    decay_mult: 0
  }
  inner_product_param {
    num_output: 2
    weight_filler {
      type: "gaussian"
      std: 0.001
    }
    bias_filler {
      type: "constant"
      value: 0
    }
  }
}
layer {
  name: "rs9"
  type: "Reshape"
  bottom: "ip9"
  top: "rs9"
  reshape_param {
    shape {
      dim: -1
      dim: 1
      dim: 3
      dim: 2
    }
  }
}
layer {
  name: "pl9"
  type: "Pooling"
  bottom: "rs9"
  top: "pl9"
  pooling_param {
    pool: AVE
    kernel_h: 3
    kernel_w: 1
  }
}
layer {
  name: "ECOC_acc9"
  type: "Accuracy"
  bottom: "pl9"
  bottom: "ECOC9"
  top: "ECOC_acc9"
  accuracy_param {
    axis: 3
  }
}
layer {
  name: "rspl9"
  type: "Reshape"
  bottom: "pl9"
  top: "rspl9"
  reshape_param {
    shape {
      dim: -1
      dim: 2
    }
  }
}
layer {
  name: "Argmax9"
  type: "ArgMax"
  bottom: "rspl9"
  top: "Argmax9"
  argmax_param {
    
  }
}
layer {
  name: "ls9"
  type: "SoftmaxWithLoss"
  bottom: "rspl9"
  bottom: "ECOC9"
  top: "ls9"
}
layer {
  name: "ip10"
  type: "InnerProduct"
  bottom: "global_pool"
  top: "ip10"
  param {
    lr_mult: 1
    decay_mult: 1
  }
  param {
    lr_mult: 2
    decay_mult: 0
  }
  inner_product_param {
    num_output: 2
    weight_filler {
      type: "gaussian"
      std: 0.001
    }
    bias_filler {
      type: "constant"
      value: 0
    }
  }
}
layer {
  name: "rs10"
  type: "Reshape"
  bottom: "ip10"
  top: "rs10"
  reshape_param {
    shape {
      dim: -1
      dim: 1
      dim: 3
      dim: 2
    }
  }
}
layer {
  name: "pl10"
  type: "Pooling"
  bottom: "rs10"
  top: "pl10"
  pooling_param {
    pool: AVE
    kernel_h: 3
    kernel_w: 1
  }
}
layer {
  name: "ECOC_acc10"
  type: "Accuracy"
  bottom: "pl10"
  bottom: "ECOC10"
  top: "ECOC_acc10"
  accuracy_param {
    axis: 3
  }
}
layer {
  name: "rspl10"
  type: "Reshape"
  bottom: "pl10"
  top: "rspl10"
  reshape_param {
    shape {
      dim: -1
      dim: 2
    }
  }
}
layer {
  name: "Argmax10"
  type: "ArgMax"
  bottom: "rspl10"
  top: "Argmax10"
  argmax_param {
    
  }
}
layer {
  name: "ls10"
  type: "SoftmaxWithLoss"
  bottom: "rspl10"
  bottom: "ECOC10"
  top: "ls10"
}
layer {
  name: "ip11"
  type: "InnerProduct"
  bottom: "global_pool"
  top: "ip11"
  param {
    lr_mult: 1
    decay_mult: 1
  }
  param {
    lr_mult: 2
    decay_mult: 0
  }
  inner_product_param {
    num_output: 2
    weight_filler {
      type: "gaussian"
      std: 0.001
    }
    bias_filler {
      type: "constant"
      value: 0
    }
  }
}
layer {
  name: "rs11"
  type: "Reshape"
  bottom: "ip11"
  top: "rs11"
  reshape_param {
    shape {
      dim: -1
      dim: 1
      dim: 3
      dim: 2
    }
  }
}
layer {
  name: "pl11"
  type: "Pooling"
  bottom: "rs11"
  top: "pl11"
  pooling_param {
    pool: AVE
    kernel_h: 3
    kernel_w: 1
  }
}
layer {
  name: "ECOC_acc11"
  type: "Accuracy"
  bottom: "pl11"
  bottom: "ECOC11"
  top: "ECOC_acc11"
  accuracy_param {
    axis: 3
  }
}
layer {
  name: "rspl11"
  type: "Reshape"
  bottom: "pl11"
  top: "rspl11"
  reshape_param {
    shape {
      dim: -1
      dim: 2
    }
  }
}
layer {
  name: "Argmax11"
  type: "ArgMax"
  bottom: "rspl11"
  top: "Argmax11"
  argmax_param {
    
  }
}
layer {
  name: "ls11"
  type: "SoftmaxWithLoss"
  bottom: "rspl11"
  bottom: "ECOC11"
  top: "ls11"
}
layer {
  name: "ip12"
  type: "InnerProduct"
  bottom: "global_pool"
  top: "ip12"
  param {
    lr_mult: 1
    decay_mult: 1
  }
  param {
    lr_mult: 2
    decay_mult: 0
  }
  inner_product_param {
    num_output: 2
    weight_filler {
      type: "gaussian"
      std: 0.001
    }
    bias_filler {
      type: "constant"
      value: 0
    }
  }
}
layer {
  name: "rs12"
  type: "Reshape"
  bottom: "ip12"
  top: "rs12"
  reshape_param {
    shape {
      dim: -1
      dim: 1
      dim: 3
      dim: 2
    }
  }
}
layer {
  name: "pl12"
  type: "Pooling"
  bottom: "rs12"
  top: "pl12"
  pooling_param {
    pool: AVE
    kernel_h: 3
    kernel_w: 1
  }
}
layer {
  name: "ECOC_acc12"
  type: "Accuracy"
  bottom: "pl12"
  bottom: "ECOC12"
  top: "ECOC_acc12"
  accuracy_param {
    axis: 3
  }
}
layer {
  name: "rspl12"
  type: "Reshape"
  bottom: "pl12"
  top: "rspl12"
  reshape_param {
    shape {
      dim: -1
      dim: 2
    }
  }
}
layer {
  name: "Argmax12"
  type: "ArgMax"
  bottom: "rspl12"
  top: "Argmax12"
  argmax_param {
    
  }
}
layer {
  name: "ls12"
  type: "SoftmaxWithLoss"
  bottom: "rspl12"
  bottom: "ECOC12"
  top: "ls12"
}
layer {
  name: "ip13"
  type: "InnerProduct"
  bottom: "global_pool"
  top: "ip13"
  param {
    lr_mult: 1
    decay_mult: 1
  }
  param {
    lr_mult: 2
    decay_mult: 0
  }
  inner_product_param {
    num_output: 2
    weight_filler {
      type: "gaussian"
      std: 0.001
    }
    bias_filler {
      type: "constant"
      value: 0
    }
  }
}
layer {
  name: "rs13"
  type: "Reshape"
  bottom: "ip13"
  top: "rs13"
  reshape_param {
    shape {
      dim: -1
      dim: 1
      dim: 3
      dim: 2
    }
  }
}
layer {
  name: "pl13"
  type: "Pooling"
  bottom: "rs13"
  top: "pl13"
  pooling_param {
    pool: AVE
    kernel_h: 3
    kernel_w: 1
  }
}
layer {
  name: "ECOC_acc13"
  type: "Accuracy"
  bottom: "pl13"
  bottom: "ECOC13"
  top: "ECOC_acc13"
  accuracy_param {
    axis: 3
  }
}
layer {
  name: "rspl13"
  type: "Reshape"
  bottom: "pl13"
  top: "rspl13"
  reshape_param {
    shape {
      dim: -1
      dim: 2
    }
  }
}
layer {
  name: "Argmax13"
  type: "ArgMax"
  bottom: "rspl13"
  top: "Argmax13"
  argmax_param {
    
  }
}
layer {
  name: "ls13"
  type: "SoftmaxWithLoss"
  bottom: "rspl13"
  bottom: "ECOC13"
  top: "ls13"
}
layer {
  name: "ip14"
  type: "InnerProduct"
  bottom: "global_pool"
  top: "ip14"
  param {
    lr_mult: 1
    decay_mult: 1
  }
  param {
    lr_mult: 2
    decay_mult: 0
  }
  inner_product_param {
    num_output: 2
    weight_filler {
      type: "gaussian"
      std: 0.001
    }
    bias_filler {
      type: "constant"
      value: 0
    }
  }
}
layer {
  name: "rs14"
  type: "Reshape"
  bottom: "ip14"
  top: "rs14"
  reshape_param {
    shape {
      dim: -1
      dim: 1
      dim: 3
      dim: 2
    }
  }
}
layer {
  name: "pl14"
  type: "Pooling"
  bottom: "rs14"
  top: "pl14"
  pooling_param {
    pool: AVE
    kernel_h: 3
    kernel_w: 1
  }
}
layer {
  name: "ECOC_acc14"
  type: "Accuracy"
  bottom: "pl14"
  bottom: "ECOC14"
  top: "ECOC_acc14"
  accuracy_param {
    axis: 3
  }
}
layer {
  name: "rspl14"
  type: "Reshape"
  bottom: "pl14"
  top: "rspl14"
  reshape_param {
    shape {
      dim: -1
      dim: 2
    }
  }
}
layer {
  name: "Argmax14"
  type: "ArgMax"
  bottom: "rspl14"
  top: "Argmax14"
  argmax_param {
    
  }
}
layer {
  name: "ls14"
  type: "SoftmaxWithLoss"
  bottom: "rspl14"
  bottom: "ECOC14"
  top: "ls14"
}
layer {
  name: "ip15"
  type: "InnerProduct"
  bottom: "global_pool"
  top: "ip15"
  param {
    lr_mult: 1
    decay_mult: 1
  }
  param {
    lr_mult: 2
    decay_mult: 0
  }
  inner_product_param {
    num_output: 2
    weight_filler {
      type: "gaussian"
      std: 0.001
    }
    bias_filler {
      type: "constant"
      value: 0
    }
  }
}
layer {
  name: "rs15"
  type: "Reshape"
  bottom: "ip15"
  top: "rs15"
  reshape_param {
    shape {
      dim: -1
      dim: 1
      dim: 3
      dim: 2
    }
  }
}
layer {
  name: "pl15"
  type: "Pooling"
  bottom: "rs15"
  top: "pl15"
  pooling_param {
    pool: AVE
    kernel_h: 3
    kernel_w: 1
  }
}
layer {
  name: "ECOC_acc15"
  type: "Accuracy"
  bottom: "pl15"
  bottom: "ECOC15"
  top: "ECOC_acc15"
  accuracy_param {
    axis: 3
  }
}
layer {
  name: "rspl15"
  type: "Reshape"
  bottom: "pl15"
  top: "rspl15"
  reshape_param {
    shape {
      dim: -1
      dim: 2
    }
  }
}
layer {
  name: "Argmax15"
  type: "ArgMax"
  bottom: "rspl15"
  top: "Argmax15"
  argmax_param {
    
  }
}
layer {
  name: "ls15"
  type: "SoftmaxWithLoss"
  bottom: "rspl15"
  bottom: "ECOC15"
  top: "ls15"
}
layer {
  name: "ip16"
  type: "InnerProduct"
  bottom: "global_pool"
  top: "ip16"
  param {
    lr_mult: 1
    decay_mult: 1
  }
  param {
    lr_mult: 2
    decay_mult: 0
  }
  inner_product_param {
    num_output: 2
    weight_filler {
      type: "gaussian"
      std: 0.001
    }
    bias_filler {
      type: "constant"
      value: 0
    }
  }
}
layer {
  name: "rs16"
  type: "Reshape"
  bottom: "ip16"
  top: "rs16"
  reshape_param {
    shape {
      dim: -1
      dim: 1
      dim: 3
      dim: 2
    }
  }
}
layer {
  name: "pl16"
  type: "Pooling"
  bottom: "rs16"
  top: "pl16"
  pooling_param {
    pool: AVE
    kernel_h: 3
    kernel_w: 1
  }
}
layer {
  name: "ECOC_acc16"
  type: "Accuracy"
  bottom: "pl16"
  bottom: "ECOC16"
  top: "ECOC_acc16"
  accuracy_param {
    axis: 3
  }
}
layer {
  name: "rspl16"
  type: "Reshape"
  bottom: "pl16"
  top: "rspl16"
  reshape_param {
    shape {
      dim: -1
      dim: 2
    }
  }
}
layer {
  name: "Argmax16"
  type: "ArgMax"
  bottom: "rspl16"
  top: "Argmax16"
  argmax_param {
    
  }
}
layer {
  name: "ls16"
  type: "SoftmaxWithLoss"
  bottom: "rspl16"
  bottom: "ECOC16"
  top: "ls16"
}
layer {
  name: "ip17"
  type: "InnerProduct"
  bottom: "global_pool"
  top: "ip17"
  param {
    lr_mult: 1
    decay_mult: 1
  }
  param {
    lr_mult: 2
    decay_mult: 0
  }
  inner_product_param {
    num_output: 2
    weight_filler {
      type: "gaussian"
      std: 0.001
    }
    bias_filler {
      type: "constant"
      value: 0
    }
  }
}
layer {
  name: "rs17"
  type: "Reshape"
  bottom: "ip17"
  top: "rs17"
  reshape_param {
    shape {
      dim: -1
      dim: 1
      dim: 3
      dim: 2
    }
  }
}
layer {
  name: "pl17"
  type: "Pooling"
  bottom: "rs17"
  top: "pl17"
  pooling_param {
    pool: AVE
    kernel_h: 3
    kernel_w: 1
  }
}
layer {
  name: "ECOC_acc17"
  type: "Accuracy"
  bottom: "pl17"
  bottom: "ECOC17"
  top: "ECOC_acc17"
  accuracy_param {
    axis: 3
  }
}
layer {
  name: "rspl17"
  type: "Reshape"
  bottom: "pl17"
  top: "rspl17"
  reshape_param {
    shape {
      dim: -1
      dim: 2
    }
  }
}
layer {
  name: "Argmax17"
  type: "ArgMax"
  bottom: "rspl17"
  top: "Argmax17"
  argmax_param {
    
  }
}
layer {
  name: "ls17"
  type: "SoftmaxWithLoss"
  bottom: "rspl17"
  bottom: "ECOC17"
  top: "ls17"
}
layer {
  name: "ip18"
  type: "InnerProduct"
  bottom: "global_pool"
  top: "ip18"
  param {
    lr_mult: 1
    decay_mult: 1
  }
  param {
    lr_mult: 2
    decay_mult: 0
  }
  inner_product_param {
    num_output: 2
    weight_filler {
      type: "gaussian"
      std: 0.001
    }
    bias_filler {
      type: "constant"
      value: 0
    }
  }
}
layer {
  name: "rs18"
  type: "Reshape"
  bottom: "ip18"
  top: "rs18"
  reshape_param {
    shape {
      dim: -1
      dim: 1
      dim: 3
      dim: 2
    }
  }
}
layer {
  name: "pl18"
  type: "Pooling"
  bottom: "rs18"
  top: "pl18"
  pooling_param {
    pool: AVE
    kernel_h: 3
    kernel_w: 1
  }
}
layer {
  name: "ECOC_acc18"
  type: "Accuracy"
  bottom: "pl18"
  bottom: "ECOC18"
  top: "ECOC_acc18"
  accuracy_param {
    axis: 3
  }
}
layer {
  name: "rspl18"
  type: "Reshape"
  bottom: "pl18"
  top: "rspl18"
  reshape_param {
    shape {
      dim: -1
      dim: 2
    }
  }
}
layer {
  name: "Argmax18"
  type: "ArgMax"
  bottom: "rspl18"
  top: "Argmax18"
  argmax_param {
    
  }
}
layer {
  name: "ls18"
  type: "SoftmaxWithLoss"
  bottom: "rspl18"
  bottom: "ECOC18"
  top: "ls18"
}
layer {
  name: "ip19"
  type: "InnerProduct"
  bottom: "global_pool"
  top: "ip19"
  param {
    lr_mult: 1
    decay_mult: 1
  }
  param {
    lr_mult: 2
    decay_mult: 0
  }
  inner_product_param {
    num_output: 2
    weight_filler {
      type: "gaussian"
      std: 0.001
    }
    bias_filler {
      type: "constant"
      value: 0
    }
  }
}
layer {
  name: "rs19"
  type: "Reshape"
  bottom: "ip19"
  top: "rs19"
  reshape_param {
    shape {
      dim: -1
      dim: 1
      dim: 3
      dim: 2
    }
  }
}
layer {
  name: "pl19"
  type: "Pooling"
  bottom: "rs19"
  top: "pl19"
  pooling_param {
    pool: AVE
    kernel_h: 3
    kernel_w: 1
  }
}
layer {
  name: "ECOC_acc19"
  type: "Accuracy"
  bottom: "pl19"
  bottom: "ECOC19"
  top: "ECOC_acc19"
  accuracy_param {
    axis: 3
  }
}
layer {
  name: "rspl19"
  type: "Reshape"
  bottom: "pl19"
  top: "rspl19"
  reshape_param {
    shape {
      dim: -1
      dim: 2
    }
  }
}
layer {
  name: "Argmax19"
  type: "ArgMax"
  bottom: "rspl19"
  top: "Argmax19"
  argmax_param {
    
  }
}
layer {
  name: "ls19"
  type: "SoftmaxWithLoss"
  bottom: "rspl19"
  bottom: "ECOC19"
  top: "ls19"
}
layer {
  name: "ip20"
  type: "InnerProduct"
  bottom: "global_pool"
  top: "ip20"
  param {
    lr_mult: 1
    decay_mult: 1
  }
  param {
    lr_mult: 2
    decay_mult: 0
  }
  inner_product_param {
    num_output: 2
    weight_filler {
      type: "gaussian"
      std: 0.001
    }
    bias_filler {
      type: "constant"
      value: 0
    }
  }
}
layer {
  name: "rs20"
  type: "Reshape"
  bottom: "ip20"
  top: "rs20"
  reshape_param {
    shape {
      dim: -1
      dim: 1
      dim: 3
      dim: 2
    }
  }
}
layer {
  name: "pl20"
  type: "Pooling"
  bottom: "rs20"
  top: "pl20"
  pooling_param {
    pool: AVE
    kernel_h: 3
    kernel_w: 1
  }
}
layer {
  name: "ECOC_acc20"
  type: "Accuracy"
  bottom: "pl20"
  bottom: "ECOC20"
  top: "ECOC_acc20"
  accuracy_param {
    axis: 3
  }
}
layer {
  name: "rspl20"
  type: "Reshape"
  bottom: "pl20"
  top: "rspl20"
  reshape_param {
    shape {
      dim: -1
      dim: 2
    }
  }
}
layer {
  name: "Argmax20"
  type: "ArgMax"
  bottom: "rspl20"
  top: "Argmax20"
  argmax_param {
    
  }
}
layer {
  name: "ls20"
  type: "SoftmaxWithLoss"
  bottom: "rspl20"
  bottom: "ECOC20"
  top: "ls20"
}
layer {
  name: "ip21"
  type: "InnerProduct"
  bottom: "global_pool"
  top: "ip21"
  param {
    lr_mult: 1
    decay_mult: 1
  }
  param {
    lr_mult: 2
    decay_mult: 0
  }
  inner_product_param {
    num_output: 2
    weight_filler {
      type: "gaussian"
      std: 0.001
    }
    bias_filler {
      type: "constant"
      value: 0
    }
  }
}
layer {
  name: "rs21"
  type: "Reshape"
  bottom: "ip21"
  top: "rs21"
  reshape_param {
    shape {
      dim: -1
      dim: 1
      dim: 3
      dim: 2
    }
  }
}
layer {
  name: "pl21"
  type: "Pooling"
  bottom: "rs21"
  top: "pl21"
  pooling_param {
    pool: AVE
    kernel_h: 3
    kernel_w: 1
  }
}
layer {
  name: "ECOC_acc21"
  type: "Accuracy"
  bottom: "pl21"
  bottom: "ECOC21"
  top: "ECOC_acc21"
  accuracy_param {
    axis: 3
  }
}
layer {
  name: "rspl21"
  type: "Reshape"
  bottom: "pl21"
  top: "rspl21"
  reshape_param {
    shape {
      dim: -1
      dim: 2
    }
  }
}
layer {
  name: "Argmax21"
  type: "ArgMax"
  bottom: "rspl21"
  top: "Argmax21"
  argmax_param {
    
  }
}
layer {
  name: "ls21"
  type: "SoftmaxWithLoss"
  bottom: "rspl21"
  bottom: "ECOC21"
  top: "ls21"
}
layer {
  name: "ip22"
  type: "InnerProduct"
  bottom: "global_pool"
  top: "ip22"
  param {
    lr_mult: 1
    decay_mult: 1
  }
  param {
    lr_mult: 2
    decay_mult: 0
  }
  inner_product_param {
    num_output: 2
    weight_filler {
      type: "gaussian"
      std: 0.001
    }
    bias_filler {
      type: "constant"
      value: 0
    }
  }
}
layer {
  name: "rs22"
  type: "Reshape"
  bottom: "ip22"
  top: "rs22"
  reshape_param {
    shape {
      dim: -1
      dim: 1
      dim: 3
      dim: 2
    }
  }
}
layer {
  name: "pl22"
  type: "Pooling"
  bottom: "rs22"
  top: "pl22"
  pooling_param {
    pool: AVE
    kernel_h: 3
    kernel_w: 1
  }
}
layer {
  name: "ECOC_acc22"
  type: "Accuracy"
  bottom: "pl22"
  bottom: "ECOC22"
  top: "ECOC_acc22"
  accuracy_param {
    axis: 3
  }
}
layer {
  name: "rspl22"
  type: "Reshape"
  bottom: "pl22"
  top: "rspl22"
  reshape_param {
    shape {
      dim: -1
      dim: 2
    }
  }
}
layer {
  name: "Argmax22"
  type: "ArgMax"
  bottom: "rspl22"
  top: "Argmax22"
  argmax_param {
    
  }
}
layer {
  name: "ls22"
  type: "SoftmaxWithLoss"
  bottom: "rspl22"
  bottom: "ECOC22"
  top: "ls22"
}
layer {
  name: "ip23"
  type: "InnerProduct"
  bottom: "global_pool"
  top: "ip23"
  param {
    lr_mult: 1
    decay_mult: 1
  }
  param {
    lr_mult: 2
    decay_mult: 0
  }
  inner_product_param {
    num_output: 2
    weight_filler {
      type: "gaussian"
      std: 0.001
    }
    bias_filler {
      type: "constant"
      value: 0
    }
  }
}
layer {
  name: "rs23"
  type: "Reshape"
  bottom: "ip23"
  top: "rs23"
  reshape_param {
    shape {
      dim: -1
      dim: 1
      dim: 3
      dim: 2
    }
  }
}
layer {
  name: "pl23"
  type: "Pooling"
  bottom: "rs23"
  top: "pl23"
  pooling_param {
    pool: AVE
    kernel_h: 3
    kernel_w: 1
  }
}
layer {
  name: "ECOC_acc23"
  type: "Accuracy"
  bottom: "pl23"
  bottom: "ECOC23"
  top: "ECOC_acc23"
  accuracy_param {
    axis: 3
  }
}
layer {
  name: "rspl23"
  type: "Reshape"
  bottom: "pl23"
  top: "rspl23"
  reshape_param {
    shape {
      dim: -1
      dim: 2
    }
  }
}
layer {
  name: "Argmax23"
  type: "ArgMax"
  bottom: "rspl23"
  top: "Argmax23"
  argmax_param {
    
  }
}
layer {
  name: "ls23"
  type: "SoftmaxWithLoss"
  bottom: "rspl23"
  bottom: "ECOC23"
  top: "ls23"
}
layer {
  name: "ip24"
  type: "InnerProduct"
  bottom: "global_pool"
  top: "ip24"
  param {
    lr_mult: 1
    decay_mult: 1
  }
  param {
    lr_mult: 2
    decay_mult: 0
  }
  inner_product_param {
    num_output: 2
    weight_filler {
      type: "gaussian"
      std: 0.001
    }
    bias_filler {
      type: "constant"
      value: 0
    }
  }
}
layer {
  name: "rs24"
  type: "Reshape"
  bottom: "ip24"
  top: "rs24"
  reshape_param {
    shape {
      dim: -1
      dim: 1
      dim: 3
      dim: 2
    }
  }
}
layer {
  name: "pl24"
  type: "Pooling"
  bottom: "rs24"
  top: "pl24"
  pooling_param {
    pool: AVE
    kernel_h: 3
    kernel_w: 1
  }
}
layer {
  name: "ECOC_acc24"
  type: "Accuracy"
  bottom: "pl24"
  bottom: "ECOC24"
  top: "ECOC_acc24"
  accuracy_param {
    axis: 3
  }
}
layer {
  name: "rspl24"
  type: "Reshape"
  bottom: "pl24"
  top: "rspl24"
  reshape_param {
    shape {
      dim: -1
      dim: 2
    }
  }
}
layer {
  name: "Argmax24"
  type: "ArgMax"
  bottom: "rspl24"
  top: "Argmax24"
  argmax_param {
    
  }
}
layer {
  name: "ls24"
  type: "SoftmaxWithLoss"
  bottom: "rspl24"
  bottom: "ECOC24"
  top: "ls24"
}
layer {
  name: "ip25"
  type: "InnerProduct"
  bottom: "global_pool"
  top: "ip25"
  param {
    lr_mult: 1
    decay_mult: 1
  }
  param {
    lr_mult: 2
    decay_mult: 0
  }
  inner_product_param {
    num_output: 2
    weight_filler {
      type: "gaussian"
      std: 0.001
    }
    bias_filler {
      type: "constant"
      value: 0
    }
  }
}
layer {
  name: "rs25"
  type: "Reshape"
  bottom: "ip25"
  top: "rs25"
  reshape_param {
    shape {
      dim: -1
      dim: 1
      dim: 3
      dim: 2
    }
  }
}
layer {
  name: "pl25"
  type: "Pooling"
  bottom: "rs25"
  top: "pl25"
  pooling_param {
    pool: AVE
    kernel_h: 3
    kernel_w: 1
  }
}
layer {
  name: "ECOC_acc25"
  type: "Accuracy"
  bottom: "pl25"
  bottom: "ECOC25"
  top: "ECOC_acc25"
  accuracy_param {
    axis: 3
  }
}
layer {
  name: "rspl25"
  type: "Reshape"
  bottom: "pl25"
  top: "rspl25"
  reshape_param {
    shape {
      dim: -1
      dim: 2
    }
  }
}
layer {
  name: "Argmax25"
  type: "ArgMax"
  bottom: "rspl25"
  top: "Argmax25"
  argmax_param {
    
  }
}
layer {
  name: "ls25"
  type: "SoftmaxWithLoss"
  bottom: "rspl25"
  bottom: "ECOC25"
  top: "ls25"
}
layer {
  name: "ip26"
  type: "InnerProduct"
  bottom: "global_pool"
  top: "ip26"
  param {
    lr_mult: 1
    decay_mult: 1
  }
  param {
    lr_mult: 2
    decay_mult: 0
  }
  inner_product_param {
    num_output: 2
    weight_filler {
      type: "gaussian"
      std: 0.001
    }
    bias_filler {
      type: "constant"
      value: 0
    }
  }
}
layer {
  name: "rs26"
  type: "Reshape"
  bottom: "ip26"
  top: "rs26"
  reshape_param {
    shape {
      dim: -1
      dim: 1
      dim: 3
      dim: 2
    }
  }
}
layer {
  name: "pl26"
  type: "Pooling"
  bottom: "rs26"
  top: "pl26"
  pooling_param {
    pool: AVE
    kernel_h: 3
    kernel_w: 1
  }
}
layer {
  name: "ECOC_acc26"
  type: "Accuracy"
  bottom: "pl26"
  bottom: "ECOC26"
  top: "ECOC_acc26"
  accuracy_param {
    axis: 3
  }
}
layer {
  name: "rspl26"
  type: "Reshape"
  bottom: "pl26"
  top: "rspl26"
  reshape_param {
    shape {
      dim: -1
      dim: 2
    }
  }
}
layer {
  name: "Argmax26"
  type: "ArgMax"
  bottom: "rspl26"
  top: "Argmax26"
  argmax_param {
    
  }
}
layer {
  name: "ls26"
  type: "SoftmaxWithLoss"
  bottom: "rspl26"
  bottom: "ECOC26"
  top: "ls26"
}
layer {
  name: "ip27"
  type: "InnerProduct"
  bottom: "global_pool"
  top: "ip27"
  param {
    lr_mult: 1
    decay_mult: 1
  }
  param {
    lr_mult: 2
    decay_mult: 0
  }
  inner_product_param {
    num_output: 2
    weight_filler {
      type: "gaussian"
      std: 0.001
    }
    bias_filler {
      type: "constant"
      value: 0
    }
  }
}
layer {
  name: "rs27"
  type: "Reshape"
  bottom: "ip27"
  top: "rs27"
  reshape_param {
    shape {
      dim: -1
      dim: 1
      dim: 3
      dim: 2
    }
  }
}
layer {
  name: "pl27"
  type: "Pooling"
  bottom: "rs27"
  top: "pl27"
  pooling_param {
    pool: AVE
    kernel_h: 3
    kernel_w: 1
  }
}
layer {
  name: "ECOC_acc27"
  type: "Accuracy"
  bottom: "pl27"
  bottom: "ECOC27"
  top: "ECOC_acc27"
  accuracy_param {
    axis: 3
  }
}
layer {
  name: "rspl27"
  type: "Reshape"
  bottom: "pl27"
  top: "rspl27"
  reshape_param {
    shape {
      dim: -1
      dim: 2
    }
  }
}
layer {
  name: "Argmax27"
  type: "ArgMax"
  bottom: "rspl27"
  top: "Argmax27"
  argmax_param {
    
  }
}
layer {
  name: "ls27"
  type: "SoftmaxWithLoss"
  bottom: "rspl27"
  bottom: "ECOC27"
  top: "ls27"
}
layer {
  name: "ip28"
  type: "InnerProduct"
  bottom: "global_pool"
  top: "ip28"
  param {
    lr_mult: 1
    decay_mult: 1
  }
  param {
    lr_mult: 2
    decay_mult: 0
  }
  inner_product_param {
    num_output: 2
    weight_filler {
      type: "gaussian"
      std: 0.001
    }
    bias_filler {
      type: "constant"
      value: 0
    }
  }
}
layer {
  name: "rs28"
  type: "Reshape"
  bottom: "ip28"
  top: "rs28"
  reshape_param {
    shape {
      dim: -1
      dim: 1
      dim: 3
      dim: 2
    }
  }
}
layer {
  name: "pl28"
  type: "Pooling"
  bottom: "rs28"
  top: "pl28"
  pooling_param {
    pool: AVE
    kernel_h: 3
    kernel_w: 1
  }
}
layer {
  name: "ECOC_acc28"
  type: "Accuracy"
  bottom: "pl28"
  bottom: "ECOC28"
  top: "ECOC_acc28"
  accuracy_param {
    axis: 3
  }
}
layer {
  name: "rspl28"
  type: "Reshape"
  bottom: "pl28"
  top: "rspl28"
  reshape_param {
    shape {
      dim: -1
      dim: 2
    }
  }
}
layer {
  name: "Argmax28"
  type: "ArgMax"
  bottom: "rspl28"
  top: "Argmax28"
  argmax_param {
    
  }
}
layer {
  name: "ls28"
  type: "SoftmaxWithLoss"
  bottom: "rspl28"
  bottom: "ECOC28"
  top: "ls28"
}
layer {
  name: "ip29"
  type: "InnerProduct"
  bottom: "global_pool"
  top: "ip29"
  param {
    lr_mult: 1
    decay_mult: 1
  }
  param {
    lr_mult: 2
    decay_mult: 0
  }
  inner_product_param {
    num_output: 2
    weight_filler {
      type: "gaussian"
      std: 0.001
    }
    bias_filler {
      type: "constant"
      value: 0
    }
  }
}
layer {
  name: "rs29"
  type: "Reshape"
  bottom: "ip29"
  top: "rs29"
  reshape_param {
    shape {
      dim: -1
      dim: 1
      dim: 3
      dim: 2
    }
  }
}
layer {
  name: "pl29"
  type: "Pooling"
  bottom: "rs29"
  top: "pl29"
  pooling_param {
    pool: AVE
    kernel_h: 3
    kernel_w: 1
  }
}
layer {
  name: "ECOC_acc29"
  type: "Accuracy"
  bottom: "pl29"
  bottom: "ECOC29"
  top: "ECOC_acc29"
  accuracy_param {
    axis: 3
  }
}
layer {
  name: "rspl29"
  type: "Reshape"
  bottom: "pl29"
  top: "rspl29"
  reshape_param {
    shape {
      dim: -1
      dim: 2
    }
  }
}
layer {
  name: "Argmax29"
  type: "ArgMax"
  bottom: "rspl29"
  top: "Argmax29"
  argmax_param {
    
  }
}
layer {
  name: "ls29"
  type: "SoftmaxWithLoss"
  bottom: "rspl29"
  bottom: "ECOC29"
  top: "ls29"
}
layer {
  name: "ip30"
  type: "InnerProduct"
  bottom: "global_pool"
  top: "ip30"
  param {
    lr_mult: 1
    decay_mult: 1
  }
  param {
    lr_mult: 2
    decay_mult: 0
  }
  inner_product_param {
    num_output: 2
    weight_filler {
      type: "gaussian"
      std: 0.001
    }
    bias_filler {
      type: "constant"
      value: 0
    }
  }
}
layer {
  name: "rs30"
  type: "Reshape"
  bottom: "ip30"
  top: "rs30"
  reshape_param {
    shape {
      dim: -1
      dim: 1
      dim: 3
      dim: 2
    }
  }
}
layer {
  name: "pl30"
  type: "Pooling"
  bottom: "rs30"
  top: "pl30"
  pooling_param {
    pool: AVE
    kernel_h: 3
    kernel_w: 1
  }
}
layer {
  name: "ECOC_acc30"
  type: "Accuracy"
  bottom: "pl30"
  bottom: "ECOC30"
  top: "ECOC_acc30"
  accuracy_param {
    axis: 3
  }
}
layer {
  name: "rspl30"
  type: "Reshape"
  bottom: "pl30"
  top: "rspl30"
  reshape_param {
    shape {
      dim: -1
      dim: 2
    }
  }
}
layer {
  name: "Argmax30"
  type: "ArgMax"
  bottom: "rspl30"
  top: "Argmax30"
  argmax_param {
    
  }
}
layer {
  name: "ls30"
  type: "SoftmaxWithLoss"
  bottom: "rspl30"
  bottom: "ECOC30"
  top: "ls30"
}
layer {
  name: "ip31"
  type: "InnerProduct"
  bottom: "global_pool"
  top: "ip31"
  param {
    lr_mult: 1
    decay_mult: 1
  }
  param {
    lr_mult: 2
    decay_mult: 0
  }
  inner_product_param {
    num_output: 2
    weight_filler {
      type: "gaussian"
      std: 0.001
    }
    bias_filler {
      type: "constant"
      value: 0
    }
  }
}
layer {
  name: "rs31"
  type: "Reshape"
  bottom: "ip31"
  top: "rs31"
  reshape_param {
    shape {
      dim: -1
      dim: 1
      dim: 3
      dim: 2
    }
  }
}
layer {
  name: "pl31"
  type: "Pooling"
  bottom: "rs31"
  top: "pl31"
  pooling_param {
    pool: AVE
    kernel_h: 3
    kernel_w: 1
  }
}
layer {
  name: "ECOC_acc31"
  type: "Accuracy"
  bottom: "pl31"
  bottom: "ECOC31"
  top: "ECOC_acc31"
  accuracy_param {
    axis: 3
  }
}
layer {
  name: "rspl31"
  type: "Reshape"
  bottom: "pl31"
  top: "rspl31"
  reshape_param {
    shape {
      dim: -1
      dim: 2
    }
  }
}
layer {
  name: "Argmax31"
  type: "ArgMax"
  bottom: "rspl31"
  top: "Argmax31"
  argmax_param {
    
  }
}
layer {
  name: "ls31"
  type: "SoftmaxWithLoss"
  bottom: "rspl31"
  bottom: "ECOC31"
  top: "ls31"
}
layer {
  name: "ip32"
  type: "InnerProduct"
  bottom: "global_pool"
  top: "ip32"
  param {
    lr_mult: 1
    decay_mult: 1
  }
  param {
    lr_mult: 2
    decay_mult: 0
  }
  inner_product_param {
    num_output: 2
    weight_filler {
      type: "gaussian"
      std: 0.001
    }
    bias_filler {
      type: "constant"
      value: 0
    }
  }
}
layer {
  name: "rs32"
  type: "Reshape"
  bottom: "ip32"
  top: "rs32"
  reshape_param {
    shape {
      dim: -1
      dim: 1
      dim: 3
      dim: 2
    }
  }
}
layer {
  name: "pl32"
  type: "Pooling"
  bottom: "rs32"
  top: "pl32"
  pooling_param {
    pool: AVE
    kernel_h: 3
    kernel_w: 1
  }
}
layer {
  name: "ECOC_acc32"
  type: "Accuracy"
  bottom: "pl32"
  bottom: "ECOC32"
  top: "ECOC_acc32"
  accuracy_param {
    axis: 3
  }
}
layer {
  name: "rspl32"
  type: "Reshape"
  bottom: "pl32"
  top: "rspl32"
  reshape_param {
    shape {
      dim: -1
      dim: 2
    }
  }
}
layer {
  name: "Argmax32"
  type: "ArgMax"
  bottom: "rspl32"
  top: "Argmax32"
  argmax_param {
    
  }
}
layer {
  name: "ls32"
  type: "SoftmaxWithLoss"
  bottom: "rspl32"
  bottom: "ECOC32"
  top: "ls32"
}
layer {
  name: "ip33"
  type: "InnerProduct"
  bottom: "global_pool"
  top: "ip33"
  param {
    lr_mult: 1
    decay_mult: 1
  }
  param {
    lr_mult: 2
    decay_mult: 0
  }
  inner_product_param {
    num_output: 2
    weight_filler {
      type: "gaussian"
      std: 0.001
    }
    bias_filler {
      type: "constant"
      value: 0
    }
  }
}
layer {
  name: "rs33"
  type: "Reshape"
  bottom: "ip33"
  top: "rs33"
  reshape_param {
    shape {
      dim: -1
      dim: 1
      dim: 3
      dim: 2
    }
  }
}
layer {
  name: "pl33"
  type: "Pooling"
  bottom: "rs33"
  top: "pl33"
  pooling_param {
    pool: AVE
    kernel_h: 3
    kernel_w: 1
  }
}
layer {
  name: "ECOC_acc33"
  type: "Accuracy"
  bottom: "pl33"
  bottom: "ECOC33"
  top: "ECOC_acc33"
  accuracy_param {
    axis: 3
  }
}
layer {
  name: "rspl33"
  type: "Reshape"
  bottom: "pl33"
  top: "rspl33"
  reshape_param {
    shape {
      dim: -1
      dim: 2
    }
  }
}
layer {
  name: "Argmax33"
  type: "ArgMax"
  bottom: "rspl33"
  top: "Argmax33"
  argmax_param {
    
  }
}
layer {
  name: "ls33"
  type: "SoftmaxWithLoss"
  bottom: "rspl33"
  bottom: "ECOC33"
  top: "ls33"
}
layer {
  name: "ip34"
  type: "InnerProduct"
  bottom: "global_pool"
  top: "ip34"
  param {
    lr_mult: 1
    decay_mult: 1
  }
  param {
    lr_mult: 2
    decay_mult: 0
  }
  inner_product_param {
    num_output: 2
    weight_filler {
      type: "gaussian"
      std: 0.001
    }
    bias_filler {
      type: "constant"
      value: 0
    }
  }
}
layer {
  name: "rs34"
  type: "Reshape"
  bottom: "ip34"
  top: "rs34"
  reshape_param {
    shape {
      dim: -1
      dim: 1
      dim: 3
      dim: 2
    }
  }
}
layer {
  name: "pl34"
  type: "Pooling"
  bottom: "rs34"
  top: "pl34"
  pooling_param {
    pool: AVE
    kernel_h: 3
    kernel_w: 1
  }
}
layer {
  name: "ECOC_acc34"
  type: "Accuracy"
  bottom: "pl34"
  bottom: "ECOC34"
  top: "ECOC_acc34"
  accuracy_param {
    axis: 3
  }
}
layer {
  name: "rspl34"
  type: "Reshape"
  bottom: "pl34"
  top: "rspl34"
  reshape_param {
    shape {
      dim: -1
      dim: 2
    }
  }
}
layer {
  name: "Argmax34"
  type: "ArgMax"
  bottom: "rspl34"
  top: "Argmax34"
  argmax_param {
    
  }
}
layer {
  name: "ls34"
  type: "SoftmaxWithLoss"
  bottom: "rspl34"
  bottom: "ECOC34"
  top: "ls34"
}
layer {
  name: "ip35"
  type: "InnerProduct"
  bottom: "global_pool"
  top: "ip35"
  param {
    lr_mult: 1
    decay_mult: 1
  }
  param {
    lr_mult: 2
    decay_mult: 0
  }
  inner_product_param {
    num_output: 2
    weight_filler {
      type: "gaussian"
      std: 0.001
    }
    bias_filler {
      type: "constant"
      value: 0
    }
  }
}
layer {
  name: "rs35"
  type: "Reshape"
  bottom: "ip35"
  top: "rs35"
  reshape_param {
    shape {
      dim: -1
      dim: 1
      dim: 3
      dim: 2
    }
  }
}
layer {
  name: "pl35"
  type: "Pooling"
  bottom: "rs35"
  top: "pl35"
  pooling_param {
    pool: AVE
    kernel_h: 3
    kernel_w: 1
  }
}
layer {
  name: "ECOC_acc35"
  type: "Accuracy"
  bottom: "pl35"
  bottom: "ECOC35"
  top: "ECOC_acc35"
  accuracy_param {
    axis: 3
  }
}
layer {
  name: "rspl35"
  type: "Reshape"
  bottom: "pl35"
  top: "rspl35"
  reshape_param {
    shape {
      dim: -1
      dim: 2
    }
  }
}
layer {
  name: "Argmax35"
  type: "ArgMax"
  bottom: "rspl35"
  top: "Argmax35"
  argmax_param {
    
  }
}
layer {
  name: "ls35"
  type: "SoftmaxWithLoss"
  bottom: "rspl35"
  bottom: "ECOC35"
  top: "ls35"
}
layer {
  name: "ip36"
  type: "InnerProduct"
  bottom: "global_pool"
  top: "ip36"
  param {
    lr_mult: 1
    decay_mult: 1
  }
  param {
    lr_mult: 2
    decay_mult: 0
  }
  inner_product_param {
    num_output: 2
    weight_filler {
      type: "gaussian"
      std: 0.001
    }
    bias_filler {
      type: "constant"
      value: 0
    }
  }
}
layer {
  name: "rs36"
  type: "Reshape"
  bottom: "ip36"
  top: "rs36"
  reshape_param {
    shape {
      dim: -1
      dim: 1
      dim: 3
      dim: 2
    }
  }
}
layer {
  name: "pl36"
  type: "Pooling"
  bottom: "rs36"
  top: "pl36"
  pooling_param {
    pool: AVE
    kernel_h: 3
    kernel_w: 1
  }
}
layer {
  name: "ECOC_acc36"
  type: "Accuracy"
  bottom: "pl36"
  bottom: "ECOC36"
  top: "ECOC_acc36"
  accuracy_param {
    axis: 3
  }
}
layer {
  name: "rspl36"
  type: "Reshape"
  bottom: "pl36"
  top: "rspl36"
  reshape_param {
    shape {
      dim: -1
      dim: 2
    }
  }
}
layer {
  name: "Argmax36"
  type: "ArgMax"
  bottom: "rspl36"
  top: "Argmax36"
  argmax_param {
    
  }
}
layer {
  name: "ls36"
  type: "SoftmaxWithLoss"
  bottom: "rspl36"
  bottom: "ECOC36"
  top: "ls36"
}
layer {
  name: "ip37"
  type: "InnerProduct"
  bottom: "global_pool"
  top: "ip37"
  param {
    lr_mult: 1
    decay_mult: 1
  }
  param {
    lr_mult: 2
    decay_mult: 0
  }
  inner_product_param {
    num_output: 2
    weight_filler {
      type: "gaussian"
      std: 0.001
    }
    bias_filler {
      type: "constant"
      value: 0
    }
  }
}
layer {
  name: "rs37"
  type: "Reshape"
  bottom: "ip37"
  top: "rs37"
  reshape_param {
    shape {
      dim: -1
      dim: 1
      dim: 3
      dim: 2
    }
  }
}
layer {
  name: "pl37"
  type: "Pooling"
  bottom: "rs37"
  top: "pl37"
  pooling_param {
    pool: AVE
    kernel_h: 3
    kernel_w: 1
  }
}
layer {
  name: "ECOC_acc37"
  type: "Accuracy"
  bottom: "pl37"
  bottom: "ECOC37"
  top: "ECOC_acc37"
  accuracy_param {
    axis: 3
  }
}
layer {
  name: "rspl37"
  type: "Reshape"
  bottom: "pl37"
  top: "rspl37"
  reshape_param {
    shape {
      dim: -1
      dim: 2
    }
  }
}
layer {
  name: "Argmax37"
  type: "ArgMax"
  bottom: "rspl37"
  top: "Argmax37"
  argmax_param {
    
  }
}
layer {
  name: "ls37"
  type: "SoftmaxWithLoss"
  bottom: "rspl37"
  bottom: "ECOC37"
  top: "ls37"
}
layer {
  name: "ip38"
  type: "InnerProduct"
  bottom: "global_pool"
  top: "ip38"
  param {
    lr_mult: 1
    decay_mult: 1
  }
  param {
    lr_mult: 2
    decay_mult: 0
  }
  inner_product_param {
    num_output: 2
    weight_filler {
      type: "gaussian"
      std: 0.001
    }
    bias_filler {
      type: "constant"
      value: 0
    }
  }
}
layer {
  name: "rs38"
  type: "Reshape"
  bottom: "ip38"
  top: "rs38"
  reshape_param {
    shape {
      dim: -1
      dim: 1
      dim: 3
      dim: 2
    }
  }
}
layer {
  name: "pl38"
  type: "Pooling"
  bottom: "rs38"
  top: "pl38"
  pooling_param {
    pool: AVE
    kernel_h: 3
    kernel_w: 1
  }
}
layer {
  name: "ECOC_acc38"
  type: "Accuracy"
  bottom: "pl38"
  bottom: "ECOC38"
  top: "ECOC_acc38"
  accuracy_param {
    axis: 3
  }
}
layer {
  name: "rspl38"
  type: "Reshape"
  bottom: "pl38"
  top: "rspl38"
  reshape_param {
    shape {
      dim: -1
      dim: 2
    }
  }
}
layer {
  name: "Argmax38"
  type: "ArgMax"
  bottom: "rspl38"
  top: "Argmax38"
  argmax_param {
    
  }
}
layer {
  name: "ls38"
  type: "SoftmaxWithLoss"
  bottom: "rspl38"
  bottom: "ECOC38"
  top: "ls38"
}
layer {
  name: "ip39"
  type: "InnerProduct"
  bottom: "global_pool"
  top: "ip39"
  param {
    lr_mult: 1
    decay_mult: 1
  }
  param {
    lr_mult: 2
    decay_mult: 0
  }
  inner_product_param {
    num_output: 2
    weight_filler {
      type: "gaussian"
      std: 0.001
    }
    bias_filler {
      type: "constant"
      value: 0
    }
  }
}
layer {
  name: "rs39"
  type: "Reshape"
  bottom: "ip39"
  top: "rs39"
  reshape_param {
    shape {
      dim: -1
      dim: 1
      dim: 3
      dim: 2
    }
  }
}
layer {
  name: "pl39"
  type: "Pooling"
  bottom: "rs39"
  top: "pl39"
  pooling_param {
    pool: AVE
    kernel_h: 3
    kernel_w: 1
  }
}
layer {
  name: "ECOC_acc39"
  type: "Accuracy"
  bottom: "pl39"
  bottom: "ECOC39"
  top: "ECOC_acc39"
  accuracy_param {
    axis: 3
  }
}
layer {
  name: "rspl39"
  type: "Reshape"
  bottom: "pl39"
  top: "rspl39"
  reshape_param {
    shape {
      dim: -1
      dim: 2
    }
  }
}
layer {
  name: "Argmax39"
  type: "ArgMax"
  bottom: "rspl39"
  top: "Argmax39"
  argmax_param {
    
  }
}
layer {
  name: "ls39"
  type: "SoftmaxWithLoss"
  bottom: "rspl39"
  bottom: "ECOC39"
  top: "ls39"
}
layer {
  name: "ip40"
  type: "InnerProduct"
  bottom: "global_pool"
  top: "ip40"
  param {
    lr_mult: 1
    decay_mult: 1
  }
  param {
    lr_mult: 2
    decay_mult: 0
  }
  inner_product_param {
    num_output: 2
    weight_filler {
      type: "gaussian"
      std: 0.001
    }
    bias_filler {
      type: "constant"
      value: 0
    }
  }
}
layer {
  name: "rs40"
  type: "Reshape"
  bottom: "ip40"
  top: "rs40"
  reshape_param {
    shape {
      dim: -1
      dim: 1
      dim: 3
      dim: 2
    }
  }
}
layer {
  name: "pl40"
  type: "Pooling"
  bottom: "rs40"
  top: "pl40"
  pooling_param {
    pool: AVE
    kernel_h: 3
    kernel_w: 1
  }
}
layer {
  name: "ECOC_acc40"
  type: "Accuracy"
  bottom: "pl40"
  bottom: "ECOC40"
  top: "ECOC_acc40"
  accuracy_param {
    axis: 3
  }
}
layer {
  name: "rspl40"
  type: "Reshape"
  bottom: "pl40"
  top: "rspl40"
  reshape_param {
    shape {
      dim: -1
      dim: 2
    }
  }
}
layer {
  name: "Argmax40"
  type: "ArgMax"
  bottom: "rspl40"
  top: "Argmax40"
  argmax_param {
    
  }
}
layer {
  name: "ls40"
  type: "SoftmaxWithLoss"
  bottom: "rspl40"
  bottom: "ECOC40"
  top: "ls40"
}
layer {
  name: "ip41"
  type: "InnerProduct"
  bottom: "global_pool"
  top: "ip41"
  param {
    lr_mult: 1
    decay_mult: 1
  }
  param {
    lr_mult: 2
    decay_mult: 0
  }
  inner_product_param {
    num_output: 2
    weight_filler {
      type: "gaussian"
      std: 0.001
    }
    bias_filler {
      type: "constant"
      value: 0
    }
  }
}
layer {
  name: "rs41"
  type: "Reshape"
  bottom: "ip41"
  top: "rs41"
  reshape_param {
    shape {
      dim: -1
      dim: 1
      dim: 3
      dim: 2
    }
  }
}
layer {
  name: "pl41"
  type: "Pooling"
  bottom: "rs41"
  top: "pl41"
  pooling_param {
    pool: AVE
    kernel_h: 3
    kernel_w: 1
  }
}
layer {
  name: "ECOC_acc41"
  type: "Accuracy"
  bottom: "pl41"
  bottom: "ECOC41"
  top: "ECOC_acc41"
  accuracy_param {
    axis: 3
  }
}
layer {
  name: "rspl41"
  type: "Reshape"
  bottom: "pl41"
  top: "rspl41"
  reshape_param {
    shape {
      dim: -1
      dim: 2
    }
  }
}
layer {
  name: "Argmax41"
  type: "ArgMax"
  bottom: "rspl41"
  top: "Argmax41"
  argmax_param {
    
  }
}
layer {
  name: "ls41"
  type: "SoftmaxWithLoss"
  bottom: "rspl41"
  bottom: "ECOC41"
  top: "ls41"
}
layer {
  name: "ip42"
  type: "InnerProduct"
  bottom: "global_pool"
  top: "ip42"
  param {
    lr_mult: 1
    decay_mult: 1
  }
  param {
    lr_mult: 2
    decay_mult: 0
  }
  inner_product_param {
    num_output: 2
    weight_filler {
      type: "gaussian"
      std: 0.001
    }
    bias_filler {
      type: "constant"
      value: 0
    }
  }
}
layer {
  name: "rs42"
  type: "Reshape"
  bottom: "ip42"
  top: "rs42"
  reshape_param {
    shape {
      dim: -1
      dim: 1
      dim: 3
      dim: 2
    }
  }
}
layer {
  name: "pl42"
  type: "Pooling"
  bottom: "rs42"
  top: "pl42"
  pooling_param {
    pool: AVE
    kernel_h: 3
    kernel_w: 1
  }
}
layer {
  name: "ECOC_acc42"
  type: "Accuracy"
  bottom: "pl42"
  bottom: "ECOC42"
  top: "ECOC_acc42"
  accuracy_param {
    axis: 3
  }
}
layer {
  name: "rspl42"
  type: "Reshape"
  bottom: "pl42"
  top: "rspl42"
  reshape_param {
    shape {
      dim: -1
      dim: 2
    }
  }
}
layer {
  name: "Argmax42"
  type: "ArgMax"
  bottom: "rspl42"
  top: "Argmax42"
  argmax_param {
    
  }
}
layer {
  name: "ls42"
  type: "SoftmaxWithLoss"
  bottom: "rspl42"
  bottom: "ECOC42"
  top: "ls42"
}
layer {
  name: "ip43"
  type: "InnerProduct"
  bottom: "global_pool"
  top: "ip43"
  param {
    lr_mult: 1
    decay_mult: 1
  }
  param {
    lr_mult: 2
    decay_mult: 0
  }
  inner_product_param {
    num_output: 2
    weight_filler {
      type: "gaussian"
      std: 0.001
    }
    bias_filler {
      type: "constant"
      value: 0
    }
  }
}
layer {
  name: "rs43"
  type: "Reshape"
  bottom: "ip43"
  top: "rs43"
  reshape_param {
    shape {
      dim: -1
      dim: 1
      dim: 3
      dim: 2
    }
  }
}
layer {
  name: "pl43"
  type: "Pooling"
  bottom: "rs43"
  top: "pl43"
  pooling_param {
    pool: AVE
    kernel_h: 3
    kernel_w: 1
  }
}
layer {
  name: "ECOC_acc43"
  type: "Accuracy"
  bottom: "pl43"
  bottom: "ECOC43"
  top: "ECOC_acc43"
  accuracy_param {
    axis: 3
  }
}
layer {
  name: "rspl43"
  type: "Reshape"
  bottom: "pl43"
  top: "rspl43"
  reshape_param {
    shape {
      dim: -1
      dim: 2
    }
  }
}
layer {
  name: "Argmax43"
  type: "ArgMax"
  bottom: "rspl43"
  top: "Argmax43"
  argmax_param {
    
  }
}
layer {
  name: "ls43"
  type: "SoftmaxWithLoss"
  bottom: "rspl43"
  bottom: "ECOC43"
  top: "ls43"
}
layer {
  name: "ip44"
  type: "InnerProduct"
  bottom: "global_pool"
  top: "ip44"
  param {
    lr_mult: 1
    decay_mult: 1
  }
  param {
    lr_mult: 2
    decay_mult: 0
  }
  inner_product_param {
    num_output: 2
    weight_filler {
      type: "gaussian"
      std: 0.001
    }
    bias_filler {
      type: "constant"
      value: 0
    }
  }
}
layer {
  name: "rs44"
  type: "Reshape"
  bottom: "ip44"
  top: "rs44"
  reshape_param {
    shape {
      dim: -1
      dim: 1
      dim: 3
      dim: 2
    }
  }
}
layer {
  name: "pl44"
  type: "Pooling"
  bottom: "rs44"
  top: "pl44"
  pooling_param {
    pool: AVE
    kernel_h: 3
    kernel_w: 1
  }
}
layer {
  name: "ECOC_acc44"
  type: "Accuracy"
  bottom: "pl44"
  bottom: "ECOC44"
  top: "ECOC_acc44"
  accuracy_param {
    axis: 3
  }
}
layer {
  name: "rspl44"
  type: "Reshape"
  bottom: "pl44"
  top: "rspl44"
  reshape_param {
    shape {
      dim: -1
      dim: 2
    }
  }
}
layer {
  name: "Argmax44"
  type: "ArgMax"
  bottom: "rspl44"
  top: "Argmax44"
  argmax_param {
    
  }
}
layer {
  name: "ls44"
  type: "SoftmaxWithLoss"
  bottom: "rspl44"
  bottom: "ECOC44"
  top: "ls44"
}
layer {
  name: "ip45"
  type: "InnerProduct"
  bottom: "global_pool"
  top: "ip45"
  param {
    lr_mult: 1
    decay_mult: 1
  }
  param {
    lr_mult: 2
    decay_mult: 0
  }
  inner_product_param {
    num_output: 2
    weight_filler {
      type: "gaussian"
      std: 0.001
    }
    bias_filler {
      type: "constant"
      value: 0
    }
  }
}
layer {
  name: "rs45"
  type: "Reshape"
  bottom: "ip45"
  top: "rs45"
  reshape_param {
    shape {
      dim: -1
      dim: 1
      dim: 3
      dim: 2
    }
  }
}
layer {
  name: "pl45"
  type: "Pooling"
  bottom: "rs45"
  top: "pl45"
  pooling_param {
    pool: AVE
    kernel_h: 3
    kernel_w: 1
  }
}
layer {
  name: "ECOC_acc45"
  type: "Accuracy"
  bottom: "pl45"
  bottom: "ECOC45"
  top: "ECOC_acc45"
  accuracy_param {
    axis: 3
  }
}
layer {
  name: "rspl45"
  type: "Reshape"
  bottom: "pl45"
  top: "rspl45"
  reshape_param {
    shape {
      dim: -1
      dim: 2
    }
  }
}
layer {
  name: "Argmax45"
  type: "ArgMax"
  bottom: "rspl45"
  top: "Argmax45"
  argmax_param {
    
  }
}
layer {
  name: "ls45"
  type: "SoftmaxWithLoss"
  bottom: "rspl45"
  bottom: "ECOC45"
  top: "ls45"
}
layer {
  name: "ip46"
  type: "InnerProduct"
  bottom: "global_pool"
  top: "ip46"
  param {
    lr_mult: 1
    decay_mult: 1
  }
  param {
    lr_mult: 2
    decay_mult: 0
  }
  inner_product_param {
    num_output: 2
    weight_filler {
      type: "gaussian"
      std: 0.001
    }
    bias_filler {
      type: "constant"
      value: 0
    }
  }
}
layer {
  name: "rs46"
  type: "Reshape"
  bottom: "ip46"
  top: "rs46"
  reshape_param {
    shape {
      dim: -1
      dim: 1
      dim: 3
      dim: 2
    }
  }
}
layer {
  name: "pl46"
  type: "Pooling"
  bottom: "rs46"
  top: "pl46"
  pooling_param {
    pool: AVE
    kernel_h: 3
    kernel_w: 1
  }
}
layer {
  name: "ECOC_acc46"
  type: "Accuracy"
  bottom: "pl46"
  bottom: "ECOC46"
  top: "ECOC_acc46"
  accuracy_param {
    axis: 3
  }
}
layer {
  name: "rspl46"
  type: "Reshape"
  bottom: "pl46"
  top: "rspl46"
  reshape_param {
    shape {
      dim: -1
      dim: 2
    }
  }
}
layer {
  name: "Argmax46"
  type: "ArgMax"
  bottom: "rspl46"
  top: "Argmax46"
  argmax_param {
    
  }
}
layer {
  name: "ls46"
  type: "SoftmaxWithLoss"
  bottom: "rspl46"
  bottom: "ECOC46"
  top: "ls46"
}
layer {
  name: "ip47"
  type: "InnerProduct"
  bottom: "global_pool"
  top: "ip47"
  param {
    lr_mult: 1
    decay_mult: 1
  }
  param {
    lr_mult: 2
    decay_mult: 0
  }
  inner_product_param {
    num_output: 2
    weight_filler {
      type: "gaussian"
      std: 0.001
    }
    bias_filler {
      type: "constant"
      value: 0
    }
  }
}
layer {
  name: "rs47"
  type: "Reshape"
  bottom: "ip47"
  top: "rs47"
  reshape_param {
    shape {
      dim: -1
      dim: 1
      dim: 3
      dim: 2
    }
  }
}
layer {
  name: "pl47"
  type: "Pooling"
  bottom: "rs47"
  top: "pl47"
  pooling_param {
    pool: AVE
    kernel_h: 3
    kernel_w: 1
  }
}
layer {
  name: "ECOC_acc47"
  type: "Accuracy"
  bottom: "pl47"
  bottom: "ECOC47"
  top: "ECOC_acc47"
  accuracy_param {
    axis: 3
  }
}
layer {
  name: "rspl47"
  type: "Reshape"
  bottom: "pl47"
  top: "rspl47"
  reshape_param {
    shape {
      dim: -1
      dim: 2
    }
  }
}
layer {
  name: "Argmax47"
  type: "ArgMax"
  bottom: "rspl47"
  top: "Argmax47"
  argmax_param {
    
  }
}
layer {
  name: "ls47"
  type: "SoftmaxWithLoss"
  bottom: "rspl47"
  bottom: "ECOC47"
  top: "ls47"
}
layer {
  name: "ip48"
  type: "InnerProduct"
  bottom: "global_pool"
  top: "ip48"
  param {
    lr_mult: 1
    decay_mult: 1
  }
  param {
    lr_mult: 2
    decay_mult: 0
  }
  inner_product_param {
    num_output: 2
    weight_filler {
      type: "gaussian"
      std: 0.001
    }
    bias_filler {
      type: "constant"
      value: 0
    }
  }
}
layer {
  name: "rs48"
  type: "Reshape"
  bottom: "ip48"
  top: "rs48"
  reshape_param {
    shape {
      dim: -1
      dim: 1
      dim: 3
      dim: 2
    }
  }
}
layer {
  name: "pl48"
  type: "Pooling"
  bottom: "rs48"
  top: "pl48"
  pooling_param {
    pool: AVE
    kernel_h: 3
    kernel_w: 1
  }
}
layer {
  name: "ECOC_acc48"
  type: "Accuracy"
  bottom: "pl48"
  bottom: "ECOC48"
  top: "ECOC_acc48"
  accuracy_param {
    axis: 3
  }
}
layer {
  name: "rspl48"
  type: "Reshape"
  bottom: "pl48"
  top: "rspl48"
  reshape_param {
    shape {
      dim: -1
      dim: 2
    }
  }
}
layer {
  name: "Argmax48"
  type: "ArgMax"
  bottom: "rspl48"
  top: "Argmax48"
  argmax_param {
    
  }
}
layer {
  name: "ls48"
  type: "SoftmaxWithLoss"
  bottom: "rspl48"
  bottom: "ECOC48"
  top: "ls48"
}
layer {
  name: "ip49"
  type: "InnerProduct"
  bottom: "global_pool"
  top: "ip49"
  param {
    lr_mult: 1
    decay_mult: 1
  }
  param {
    lr_mult: 2
    decay_mult: 0
  }
  inner_product_param {
    num_output: 2
    weight_filler {
      type: "gaussian"
      std: 0.001
    }
    bias_filler {
      type: "constant"
      value: 0
    }
  }
}
layer {
  name: "rs49"
  type: "Reshape"
  bottom: "ip49"
  top: "rs49"
  reshape_param {
    shape {
      dim: -1
      dim: 1
      dim: 3
      dim: 2
    }
  }
}
layer {
  name: "pl49"
  type: "Pooling"
  bottom: "rs49"
  top: "pl49"
  pooling_param {
    pool: AVE
    kernel_h: 3
    kernel_w: 1
  }
}
layer {
  name: "ECOC_acc49"
  type: "Accuracy"
  bottom: "pl49"
  bottom: "ECOC49"
  top: "ECOC_acc49"
  accuracy_param {
    axis: 3
  }
}
layer {
  name: "rspl49"
  type: "Reshape"
  bottom: "pl49"
  top: "rspl49"
  reshape_param {
    shape {
      dim: -1
      dim: 2
    }
  }
}
layer {
  name: "Argmax49"
  type: "ArgMax"
  bottom: "rspl49"
  top: "Argmax49"
  argmax_param {
    
  }
}
layer {
  name: "ls49"
  type: "SoftmaxWithLoss"
  bottom: "rspl49"
  bottom: "ECOC49"
  top: "ls49"
}
layer {
  name: "ip50"
  type: "InnerProduct"
  bottom: "global_pool"
  top: "ip50"
  param {
    lr_mult: 1
    decay_mult: 1
  }
  param {
    lr_mult: 2
    decay_mult: 0
  }
  inner_product_param {
    num_output: 2
    weight_filler {
      type: "gaussian"
      std: 0.001
    }
    bias_filler {
      type: "constant"
      value: 0
    }
  }
}
layer {
  name: "rs50"
  type: "Reshape"
  bottom: "ip50"
  top: "rs50"
  reshape_param {
    shape {
      dim: -1
      dim: 1
      dim: 3
      dim: 2
    }
  }
}
layer {
  name: "pl50"
  type: "Pooling"
  bottom: "rs50"
  top: "pl50"
  pooling_param {
    pool: AVE
    kernel_h: 3
    kernel_w: 1
  }
}
layer {
  name: "ECOC_acc50"
  type: "Accuracy"
  bottom: "pl50"
  bottom: "ECOC50"
  top: "ECOC_acc50"
  accuracy_param {
    axis: 3
  }
}
layer {
  name: "rspl50"
  type: "Reshape"
  bottom: "pl50"
  top: "rspl50"
  reshape_param {
    shape {
      dim: -1
      dim: 2
    }
  }
}
layer {
  name: "Argmax50"
  type: "ArgMax"
  bottom: "rspl50"
  top: "Argmax50"
  argmax_param {
    
  }
}
layer {
  name: "ls50"
  type: "SoftmaxWithLoss"
  bottom: "rspl50"
  bottom: "ECOC50"
  top: "ls50"
}
layer {
…
  bottom: "global_pool"
  top: "ip974"
  param {
    lr_mult: 1
    decay_mult: 1
  }
  param {
    lr_mult: 2
    decay_mult: 0
  }
  inner_product_param {
    num_output: 2
    weight_filler {
      type: "gaussian"
      std: 0.001
    }
    bias_filler {
      type: "constant"
      value: 0
    }
  }
}
layer {
  name: "rs974"
  type: "Reshape"
  bottom: "ip974"
  top: "rs974"
  reshape_param {
    shape {
      dim: -1
      dim: 1
      dim: 3
      dim: 2
    }
  }
}
layer {
  name: "pl974"
  type: "Pooling"
  bottom: "rs974"
  top: "pl974"
  pooling_param {
    pool: AVE
    kernel_h: 3
    kernel_w: 1
  }
}
layer {
  name: "ECOC_acc974"
  type: "Accuracy"
  bottom: "pl974"
  bottom: "ECOC974"
  top: "ECOC_acc974"
  accuracy_param {
    axis: 3
  }
}
layer {
  name: "rspl974"
  type: "Reshape"
  bottom: "pl974"
  top: "rspl974"
  reshape_param {
    shape {
      dim: -1
      dim: 2
    }
  }
}
layer {
  name: "Argmax974"
  type: "ArgMax"
  bottom: "rspl974"
  top: "Argmax974"
  argmax_param {
    
  }
}
layer {
  name: "ls974"
  type: "SoftmaxWithLoss"
  bottom: "rspl974"
  bottom: "ECOC974"
  top: "ls974"
}
layer {
  name: "ip975"
  type: "InnerProduct"
  bottom: "global_pool"
  top: "ip975"
  param {
    lr_mult: 1
    decay_mult: 1
  }
  param {
    lr_mult: 2
    decay_mult: 0
  }
  inner_product_param {
    num_output: 2
    weight_filler {
      type: "gaussian"
      std: 0.001
    }
    bias_filler {
      type: "constant"
      value: 0
    }
  }
}
layer {
  name: "rs975"
  type: "Reshape"
  bottom: "ip975"
  top: "rs975"
  reshape_param {
    shape {
      dim: -1
      dim: 1
      dim: 3
      dim: 2
    }
  }
}
layer {
  name: "pl975"
  type: "Pooling"
  bottom: "rs975"
  top: "pl975"
  pooling_param {
    pool: AVE
    kernel_h: 3
    kernel_w: 1
  }
}
layer {
  name: "ECOC_acc975"
  type: "Accuracy"
  bottom: "pl975"
  bottom: "ECOC975"
  top: "ECOC_acc975"
  accuracy_param {
    axis: 3
  }
}
layer {
  name: "rspl975"
  type: "Reshape"
  bottom: "pl975"
  top: "rspl975"
  reshape_param {
    shape {
      dim: -1
      dim: 2
    }
  }
}
layer {
  name: "Argmax975"
  type: "ArgMax"
  bottom: "rspl975"
  top: "Argmax975"
  argmax_param {
    
  }
}
layer {
  name: "ls975"
  type: "SoftmaxWithLoss"
  bottom: "rspl975"
  bottom: "ECOC975"
  top: "ls975"
}
layer {
  name: "ip976"
  type: "InnerProduct"
  bottom: "global_pool"
  top: "ip976"
  param {
    lr_mult: 1
    decay_mult: 1
  }
  param {
    lr_mult: 2
    decay_mult: 0
  }
  inner_product_param {
    num_output: 2
    weight_filler {
      type: "gaussian"
      std: 0.001
    }
    bias_filler {
      type: "constant"
      value: 0
    }
  }
}
layer {
  name: "rs976"
  type: "Reshape"
  bottom: "ip976"
  top: "rs976"
  reshape_param {
    shape {
      dim: -1
      dim: 1
      dim: 3
      dim: 2
    }
  }
}
layer {
  name: "pl976"
  type: "Pooling"
  bottom: "rs976"
  top: "pl976"
  pooling_param {
    pool: AVE
    kernel_h: 3
    kernel_w: 1
  }
}
layer {
  name: "ECOC_acc976"
  type: "Accuracy"
  bottom: "pl976"
  bottom: "ECOC976"
  top: "ECOC_acc976"
  accuracy_param {
    axis: 3
  }
}
layer {
  name: "rspl976"
  type: "Reshape"
  bottom: "pl976"
  top: "rspl976"
  reshape_param {
    shape {
      dim: -1
      dim: 2
    }
  }
}
layer {
  name: "Argmax976"
  type: "ArgMax"
  bottom: "rspl976"
  top: "Argmax976"
  argmax_param {
    
  }
}
layer {
  name: "ls976"
  type: "SoftmaxWithLoss"
  bottom: "rspl976"
  bottom: "ECOC976"
  top: "ls976"
}
layer {
  name: "ip977"
  type: "InnerProduct"
  bottom: "global_pool"
  top: "ip977"
  param {
    lr_mult: 1
    decay_mult: 1
  }
  param {
    lr_mult: 2
    decay_mult: 0
  }
  inner_product_param {
    num_output: 2
    weight_filler {
      type: "gaussian"
      std: 0.001
    }
    bias_filler {
      type: "constant"
      value: 0
    }
  }
}
layer {
  name: "rs977"
  type: "Reshape"
  bottom: "ip977"
  top: "rs977"
  reshape_param {
    shape {
      dim: -1
      dim: 1
      dim: 3
      dim: 2
    }
  }
}
layer {
  name: "pl977"
  type: "Pooling"
  bottom: "rs977"
  top: "pl977"
  pooling_param {
    pool: AVE
    kernel_h: 3
    kernel_w: 1
  }
}
layer {
  name: "ECOC_acc977"
  type: "Accuracy"
  bottom: "pl977"
  bottom: "ECOC977"
  top: "ECOC_acc977"
  accuracy_param {
    axis: 3
  }
}
layer {
  name: "rspl977"
  type: "Reshape"
  bottom: "pl977"
  top: "rspl977"
  reshape_param {
    shape {
      dim: -1
      dim: 2
    }
  }
}
layer {
  name: "Argmax977"
  type: "ArgMax"
  bottom: "rspl977"
  top: "Argmax977"
  argmax_param {
    
  }
}
layer {
  name: "ls977"
  type: "SoftmaxWithLoss"
  bottom: "rspl977"
  bottom: "ECOC977"
  top: "ls977"
}
layer {
  name: "ip978"
  type: "InnerProduct"
  bottom: "global_pool"
  top: "ip978"
  param {
    lr_mult: 1
    decay_mult: 1
  }
  param {
    lr_mult: 2
    decay_mult: 0
  }
  inner_product_param {
    num_output: 2
    weight_filler {
      type: "gaussian"
      std: 0.001
    }
    bias_filler {
      type: "constant"
      value: 0
    }
  }
}
layer {
  name: "rs978"
  type: "Reshape"
  bottom: "ip978"
  top: "rs978"
  reshape_param {
    shape {
      dim: -1
      dim: 1
      dim: 3
      dim: 2
    }
  }
}
layer {
  name: "pl978"
  type: "Pooling"
  bottom: "rs978"
  top: "pl978"
  pooling_param {
    pool: AVE
    kernel_h: 3
    kernel_w: 1
  }
}
layer {
  name: "ECOC_acc978"
  type: "Accuracy"
  bottom: "pl978"
  bottom: "ECOC978"
  top: "ECOC_acc978"
  accuracy_param {
    axis: 3
  }
}
layer {
  name: "rspl978"
  type: "Reshape"
  bottom: "pl978"
  top: "rspl978"
  reshape_param {
    shape {
      dim: -1
      dim: 2
    }
  }
}
layer {
  name: "Argmax978"
  type: "ArgMax"
  bottom: "rspl978"
  top: "Argmax978"
  argmax_param {
    
  }
}
layer {
  name: "ls978"
  type: "SoftmaxWithLoss"
  bottom: "rspl978"
  bottom: "ECOC978"
  top: "ls978"
}
layer {
  name: "ip979"
  type: "InnerProduct"
  bottom: "global_pool"
  top: "ip979"
  param {
    lr_mult: 1
    decay_mult: 1
  }
  param {
    lr_mult: 2
    decay_mult: 0
  }
  inner_product_param {
    num_output: 2
    weight_filler {
      type: "gaussian"
      std: 0.001
    }
    bias_filler {
      type: "constant"
      value: 0
    }
  }
}
layer {
  name: "rs979"
  type: "Reshape"
  bottom: "ip979"
  top: "rs979"
  reshape_param {
    shape {
      dim: -1
      dim: 1
      dim: 3
      dim: 2
    }
  }
}
layer {
  name: "pl979"
  type: "Pooling"
  bottom: "rs979"
  top: "pl979"
  pooling_param {
    pool: AVE
    kernel_h: 3
    kernel_w: 1
  }
}
layer {
  name: "ECOC_acc979"
  type: "Accuracy"
  bottom: "pl979"
  bottom: "ECOC979"
  top: "ECOC_acc979"
  accuracy_param {
    axis: 3
  }
}
layer {
  name: "rspl979"
  type: "Reshape"
  bottom: "pl979"
  top: "rspl979"
  reshape_param {
    shape {
      dim: -1
      dim: 2
    }
  }
}
layer {
  name: "Argmax979"
  type: "ArgMax"
  bottom: "rspl979"
  top: "Argmax979"
  argmax_param {
    
  }
}
layer {
  name: "ls979"
  type: "SoftmaxWithLoss"
  bottom: "rspl979"
  bottom: "ECOC979"
  top: "ls979"
}
layer {
  name: "ip980"
  type: "InnerProduct"
  bottom: "global_pool"
  top: "ip980"
  param {
    lr_mult: 1
    decay_mult: 1
  }
  param {
    lr_mult: 2
    decay_mult: 0
  }
  inner_product_param {
    num_output: 2
    weight_filler {
      type: "gaussian"
      std: 0.001
    }
    bias_filler {
      type: "constant"
      value: 0
    }
  }
}
layer {
  name: "rs980"
  type: "Reshape"
  bottom: "ip980"
  top: "rs980"
  reshape_param {
    shape {
      dim: -1
      dim: 1
      dim: 3
      dim: 2
    }
  }
}
layer {
  name: "pl980"
  type: "Pooling"
  bottom: "rs980"
  top: "pl980"
  pooling_param {
    pool: AVE
    kernel_h: 3
    kernel_w: 1
  }
}
layer {
  name: "ECOC_acc980"
  type: "Accuracy"
  bottom: "pl980"
  bottom: "ECOC980"
  top: "ECOC_acc980"
  accuracy_param {
    axis: 3
  }
}
layer {
  name: "rspl980"
  type: "Reshape"
  bottom: "pl980"
  top: "rspl980"
  reshape_param {
    shape {
      dim: -1
      dim: 2
    }
  }
}
layer {
  name: "Argmax980"
  type: "ArgMax"
  bottom: "rspl980"
  top: "Argmax980"
  argmax_param {
    
  }
}
layer {
  name: "ls980"
  type: "SoftmaxWithLoss"
  bottom: "rspl980"
  bottom: "ECOC980"
  top: "ls980"
}
layer {
  name: "ip981"
  type: "InnerProduct"
  bottom: "global_pool"
  top: "ip981"
  param {
    lr_mult: 1
    decay_mult: 1
  }
  param {
    lr_mult: 2
    decay_mult: 0
  }
  inner_product_param {
    num_output: 2
    weight_filler {
      type: "gaussian"
      std: 0.001
    }
    bias_filler {
      type: "constant"
      value: 0
    }
  }
}
layer {
  name: "rs981"
  type: "Reshape"
  bottom: "ip981"
  top: "rs981"
  reshape_param {
    shape {
      dim: -1
      dim: 1
      dim: 3
      dim: 2
    }
  }
}
layer {
  name: "pl981"
  type: "Pooling"
  bottom: "rs981"
  top: "pl981"
  pooling_param {
    pool: AVE
    kernel_h: 3
    kernel_w: 1
  }
}
layer {
  name: "ECOC_acc981"
  type: "Accuracy"
  bottom: "pl981"
  bottom: "ECOC981"
  top: "ECOC_acc981"
  accuracy_param {
    axis: 3
  }
}
layer {
  name: "rspl981"
  type: "Reshape"
  bottom: "pl981"
  top: "rspl981"
  reshape_param {
    shape {
      dim: -1
      dim: 2
    }
  }
}
layer {
  name: "Argmax981"
  type: "ArgMax"
  bottom: "rspl981"
  top: "Argmax981"
  argmax_param {
    
  }
}
layer {
  name: "ls981"
  type: "SoftmaxWithLoss"
  bottom: "rspl981"
  bottom: "ECOC981"
  top: "ls981"
}
layer {
  name: "ip982"
  type: "InnerProduct"
  bottom: "global_pool"
  top: "ip982"
  param {
    lr_mult: 1
    decay_mult: 1
  }
  param {
    lr_mult: 2
    decay_mult: 0
  }
  inner_product_param {
    num_output: 2
    weight_filler {
      type: "gaussian"
      std: 0.001
    }
    bias_filler {
      type: "constant"
      value: 0
    }
  }
}
layer {
  name: "rs982"
  type: "Reshape"
  bottom: "ip982"
  top: "rs982"
  reshape_param {
    shape {
      dim: -1
      dim: 1
      dim: 3
      dim: 2
    }
  }
}
layer {
  name: "pl982"
  type: "Pooling"
  bottom: "rs982"
  top: "pl982"
  pooling_param {
    pool: AVE
    kernel_h: 3
    kernel_w: 1
  }
}
layer {
  name: "ECOC_acc982"
  type: "Accuracy"
  bottom: "pl982"
  bottom: "ECOC982"
  top: "ECOC_acc982"
  accuracy_param {
    axis: 3
  }
}
layer {
  name: "rspl982"
  type: "Reshape"
  bottom: "pl982"
  top: "rspl982"
  reshape_param {
    shape {
      dim: -1
      dim: 2
    }
  }
}
layer {
  name: "Argmax982"
  type: "ArgMax"
  bottom: "rspl982"
  top: "Argmax982"
  argmax_param {
    
  }
}
layer {
  name: "ls982"
  type: "SoftmaxWithLoss"
  bottom: "rspl982"
  bottom: "ECOC982"
  top: "ls982"
}
layer {
  name: "ip983"
  type: "InnerProduct"
  bottom: "global_pool"
  top: "ip983"
  param {
    lr_mult: 1
    decay_mult: 1
  }
  param {
    lr_mult: 2
    decay_mult: 0
  }
  inner_product_param {
    num_output: 2
    weight_filler {
      type: "gaussian"
      std: 0.001
    }
    bias_filler {
      type: "constant"
      value: 0
    }
  }
}
layer {
  name: "rs983"
  type: "Reshape"
  bottom: "ip983"
  top: "rs983"
  reshape_param {
    shape {
      dim: -1
      dim: 1
      dim: 3
      dim: 2
    }
  }
}
layer {
  name: "pl983"
  type: "Pooling"
  bottom: "rs983"
  top: "pl983"
  pooling_param {
    pool: AVE
    kernel_h: 3
    kernel_w: 1
  }
}
layer {
  name: "ECOC_acc983"
  type: "Accuracy"
  bottom: "pl983"
  bottom: "ECOC983"
  top: "ECOC_acc983"
  accuracy_param {
    axis: 3
  }
}
layer {
  name: "rspl983"
  type: "Reshape"
  bottom: "pl983"
  top: "rspl983"
  reshape_param {
    shape {
      dim: -1
      dim: 2
    }
  }
}
layer {
  name: "Argmax983"
  type: "ArgMax"
  bottom: "rspl983"
  top: "Argmax983"
  argmax_param {
    
  }
}
layer {
  name: "ls983"
  type: "SoftmaxWithLoss"
  bottom: "rspl983"
  bottom: "ECOC983"
  top: "ls983"
}
layer {
  name: "ip984"
  type: "InnerProduct"
  bottom: "global_pool"
  top: "ip984"
  param {
    lr_mult: 1
    decay_mult: 1
  }
  param {
    lr_mult: 2
    decay_mult: 0
  }
  inner_product_param {
    num_output: 2
    weight_filler {
      type: "gaussian"
      std: 0.001
    }
    bias_filler {
      type: "constant"
      value: 0
    }
  }
}
layer {
  name: "rs984"
  type: "Reshape"
  bottom: "ip984"
  top: "rs984"
  reshape_param {
    shape {
      dim: -1
      dim: 1
      dim: 3
      dim: 2
    }
  }
}
layer {
  name: "pl984"
  type: "Pooling"
  bottom: "rs984"
  top: "pl984"
  pooling_param {
    pool: AVE
    kernel_h: 3
    kernel_w: 1
  }
}
layer {
  name: "ECOC_acc984"
  type: "Accuracy"
  bottom: "pl984"
  bottom: "ECOC984"
  top: "ECOC_acc984"
  accuracy_param {
    axis: 3
  }
}
layer {
  name: "rspl984"
  type: "Reshape"
  bottom: "pl984"
  top: "rspl984"
  reshape_param {
    shape {
      dim: -1
      dim: 2
    }
  }
}
layer {
  name: "Argmax984"
  type: "ArgMax"
  bottom: "rspl984"
  top: "Argmax984"
  argmax_param {
    
  }
}
layer {
  name: "ls984"
  type: "SoftmaxWithLoss"
  bottom: "rspl984"
  bottom: "ECOC984"
  top: "ls984"
}
layer {
  name: "ip985"
  type: "InnerProduct"
  bottom: "global_pool"
  top: "ip985"
  param {
    lr_mult: 1
    decay_mult: 1
  }
  param {
    lr_mult: 2
    decay_mult: 0
  }
  inner_product_param {
    num_output: 2
    weight_filler {
      type: "gaussian"
      std: 0.001
    }
    bias_filler {
      type: "constant"
      value: 0
    }
  }
}
layer {
  name: "rs985"
  type: "Reshape"
  bottom: "ip985"
  top: "rs985"
  reshape_param {
    shape {
      dim: -1
      dim: 1
      dim: 3
      dim: 2
    }
  }
}
layer {
  name: "pl985"
  type: "Pooling"
  bottom: "rs985"
  top: "pl985"
  pooling_param {
    pool: AVE
    kernel_h: 3
    kernel_w: 1
  }
}
layer {
  name: "ECOC_acc985"
  type: "Accuracy"
  bottom: "pl985"
  bottom: "ECOC985"
  top: "ECOC_acc985"
  accuracy_param {
    axis: 3
  }
}
layer {
  name: "rspl985"
  type: "Reshape"
  bottom: "pl985"
  top: "rspl985"
  reshape_param {
    shape {
      dim: -1
      dim: 2
    }
  }
}
layer {
  name: "Argmax985"
  type: "ArgMax"
  bottom: "rspl985"
  top: "Argmax985"
  argmax_param {
    
  }
}
layer {
  name: "ls985"
  type: "SoftmaxWithLoss"
  bottom: "rspl985"
  bottom: "ECOC985"
  top: "ls985"
}
layer {
  name: "ip986"
  type: "InnerProduct"
  bottom: "global_pool"
  top: "ip986"
  param {
    lr_mult: 1
    decay_mult: 1
  }
  param {
    lr_mult: 2
    decay_mult: 0
  }
  inner_product_param {
    num_output: 2
    weight_filler {
      type: "gaussian"
      std: 0.001
    }
    bias_filler {
      type: "constant"
      value: 0
    }
  }
}
layer {
  name: "rs986"
  type: "Reshape"
  bottom: "ip986"
  top: "rs986"
  reshape_param {
    shape {
      dim: -1
      dim: 1
      dim: 3
      dim: 2
    }
  }
}
layer {
  name: "pl986"
  type: "Pooling"
  bottom: "rs986"
  top: "pl986"
  pooling_param {
    pool: AVE
    kernel_h: 3
    kernel_w: 1
  }
}
layer {
  name: "ECOC_acc986"
  type: "Accuracy"
  bottom: "pl986"
  bottom: "ECOC986"
  top: "ECOC_acc986"
  accuracy_param {
    axis: 3
  }
}
layer {
  name: "rspl986"
  type: "Reshape"
  bottom: "pl986"
  top: "rspl986"
  reshape_param {
    shape {
      dim: -1
      dim: 2
    }
  }
}
layer {
  name: "Argmax986"
  type: "ArgMax"
  bottom: "rspl986"
  top: "Argmax986"
  argmax_param {
    
  }
}
layer {
  name: "ls986"
  type: "SoftmaxWithLoss"
  bottom: "rspl986"
  bottom: "ECOC986"
  top: "ls986"
}
layer {
  name: "ip987"
  type: "InnerProduct"
  bottom: "global_pool"
  top: "ip987"
  param {
    lr_mult: 1
    decay_mult: 1
  }
  param {
    lr_mult: 2
    decay_mult: 0
  }
  inner_product_param {
    num_output: 2
    weight_filler {
      type: "gaussian"
      std: 0.001
    }
    bias_filler {
      type: "constant"
      value: 0
    }
  }
}
layer {
  name: "rs987"
  type: "Reshape"
  bottom: "ip987"
  top: "rs987"
  reshape_param {
    shape {
      dim: -1
      dim: 1
      dim: 3
      dim: 2
    }
  }
}
layer {
  name: "pl987"
  type: "Pooling"
  bottom: "rs987"
  top: "pl987"
  pooling_param {
    pool: AVE
    kernel_h: 3
    kernel_w: 1
  }
}
layer {
  name: "ECOC_acc987"
  type: "Accuracy"
  bottom: "pl987"
  bottom: "ECOC987"
  top: "ECOC_acc987"
  accuracy_param {
    axis: 3
  }
}
layer {
  name: "rspl987"
  type: "Reshape"
  bottom: "pl987"
  top: "rspl987"
  reshape_param {
    shape {
      dim: -1
      dim: 2
    }
  }
}
layer {
  name: "Argmax987"
  type: "ArgMax"
  bottom: "rspl987"
  top: "Argmax987"
  argmax_param {
    
  }
}
layer {
  name: "ls987"
  type: "SoftmaxWithLoss"
  bottom: "rspl987"
  bottom: "ECOC987"
  top: "ls987"
}
layer {
  name: "ip988"
  type: "InnerProduct"
  bottom: "global_pool"
  top: "ip988"
  param {
    lr_mult: 1
    decay_mult: 1
  }
  param {
    lr_mult: 2
    decay_mult: 0
  }
  inner_product_param {
    num_output: 2
    weight_filler {
      type: "gaussian"
      std: 0.001
    }
    bias_filler {
      type: "constant"
      value: 0
    }
  }
}
layer {
  name: "rs988"
  type: "Reshape"
  bottom: "ip988"
  top: "rs988"
  reshape_param {
    shape {
      dim: -1
      dim: 1
      dim: 3
      dim: 2
    }
  }
}
layer {
  name: "pl988"
  type: "Pooling"
  bottom: "rs988"
  top: "pl988"
  pooling_param {
    pool: AVE
    kernel_h: 3
    kernel_w: 1
  }
}
layer {
  name: "ECOC_acc988"
  type: "Accuracy"
  bottom: "pl988"
  bottom: "ECOC988"
  top: "ECOC_acc988"
  accuracy_param {
    axis: 3
  }
}
layer {
  name: "rspl988"
  type: "Reshape"
  bottom: "pl988"
  top: "rspl988"
  reshape_param {
    shape {
      dim: -1
      dim: 2
    }
  }
}
layer {
  name: "Argmax988"
  type: "ArgMax"
  bottom: "rspl988"
  top: "Argmax988"
  argmax_param {
    
  }
}
layer {
  name: "ls988"
  type: "SoftmaxWithLoss"
  bottom: "rspl988"
  bottom: "ECOC988"
  top: "ls988"
}
layer {
  name: "ip989"
  type: "InnerProduct"
  bottom: "global_pool"
  top: "ip989"
  param {
    lr_mult: 1
    decay_mult: 1
  }
  param {
    lr_mult: 2
    decay_mult: 0
  }
  inner_product_param {
    num_output: 2
    weight_filler {
      type: "gaussian"
      std: 0.001
    }
    bias_filler {
      type: "constant"
      value: 0
    }
  }
}
layer {
  name: "rs989"
  type: "Reshape"
  bottom: "ip989"
  top: "rs989"
  reshape_param {
    shape {
      dim: -1
      dim: 1
      dim: 3
      dim: 2
    }
  }
}
layer {
  name: "pl989"
  type: "Pooling"
  bottom: "rs989"
  top: "pl989"
  pooling_param {
    pool: AVE
    kernel_h: 3
    kernel_w: 1
  }
}
layer {
  name: "ECOC_acc989"
  type: "Accuracy"
  bottom: "pl989"
  bottom: "ECOC989"
  top: "ECOC_acc989"
  accuracy_param {
    axis: 3
  }
}
layer {
  name: "rspl989"
  type: "Reshape"
  bottom: "pl989"
  top: "rspl989"
  reshape_param {
    shape {
      dim: -1
      dim: 2
    }
  }
}
layer {
  name: "Argmax989"
  type: "ArgMax"
  bottom: "rspl989"
  top: "Argmax989"
  argmax_param {
    
  }
}
layer {
  name: "ls989"
  type: "SoftmaxWithLoss"
  bottom: "rspl989"
  bottom: "ECOC989"
  top: "ls989"
}
layer {
  name: "ip990"
  type: "InnerProduct"
  bottom: "global_pool"
  top: "ip990"
  param {
    lr_mult: 1
    decay_mult: 1
  }
  param {
    lr_mult: 2
    decay_mult: 0
  }
  inner_product_param {
    num_output: 2
    weight_filler {
      type: "gaussian"
      std: 0.001
    }
    bias_filler {
      type: "constant"
      value: 0
    }
  }
}
layer {
  name: "rs990"
  type: "Reshape"
  bottom: "ip990"
  top: "rs990"
  reshape_param {
    shape {
      dim: -1
      dim: 1
      dim: 3
      dim: 2
    }
  }
}
layer {
  name: "pl990"
  type: "Pooling"
  bottom: "rs990"
  top: "pl990"
  pooling_param {
    pool: AVE
    kernel_h: 3
    kernel_w: 1
  }
}
layer {
  name: "ECOC_acc990"
  type: "Accuracy"
  bottom: "pl990"
  bottom: "ECOC990"
  top: "ECOC_acc990"
  accuracy_param {
    axis: 3
  }
}
layer {
  name: "rspl990"
  type: "Reshape"
  bottom: "pl990"
  top: "rspl990"
  reshape_param {
    shape {
      dim: -1
      dim: 2
    }
  }
}
layer {
  name: "Argmax990"
  type: "ArgMax"
  bottom: "rspl990"
  top: "Argmax990"
  argmax_param {
    
  }
}
layer {
  name: "ls990"
  type: "SoftmaxWithLoss"
  bottom: "rspl990"
  bottom: "ECOC990"
  top: "ls990"
}
layer {
  name: "ip991"
  type: "InnerProduct"
  bottom: "global_pool"
  top: "ip991"
  param {
    lr_mult: 1
    decay_mult: 1
  }
  param {
    lr_mult: 2
    decay_mult: 0
  }
  inner_product_param {
    num_output: 2
    weight_filler {
      type: "gaussian"
      std: 0.001
    }
    bias_filler {
      type: "constant"
      value: 0
    }
  }
}
layer {
  name: "rs991"
  type: "Reshape"
  bottom: "ip991"
  top: "rs991"
  reshape_param {
    shape {
      dim: -1
      dim: 1
      dim: 3
      dim: 2
    }
  }
}
layer {
  name: "pl991"
  type: "Pooling"
  bottom: "rs991"
  top: "pl991"
  pooling_param {
    pool: AVE
    kernel_h: 3
    kernel_w: 1
  }
}
layer {
  name: "ECOC_acc991"
  type: "Accuracy"
  bottom: "pl991"
  bottom: "ECOC991"
  top: "ECOC_acc991"
  accuracy_param {
    axis: 3
  }
}
layer {
  name: "rspl991"
  type: "Reshape"
  bottom: "pl991"
  top: "rspl991"
  reshape_param {
    shape {
      dim: -1
      dim: 2
    }
  }
}
layer {
  name: "Argmax991"
  type: "ArgMax"
  bottom: "rspl991"
  top: "Argmax991"
  argmax_param {
    
  }
}
layer {
  name: "ls991"
  type: "SoftmaxWithLoss"
  bottom: "rspl991"
  bottom: "ECOC991"
  top: "ls991"
}
layer {
  name: "ip992"
  type: "InnerProduct"
  bottom: "global_pool"
  top: "ip992"
  param {
    lr_mult: 1
    decay_mult: 1
  }
  param {
    lr_mult: 2
    decay_mult: 0
  }
  inner_product_param {
    num_output: 2
    weight_filler {
      type: "gaussian"
      std: 0.001
    }
    bias_filler {
      type: "constant"
      value: 0
    }
  }
}
layer {
  name: "rs992"
  type: "Reshape"
  bottom: "ip992"
  top: "rs992"
  reshape_param {
    shape {
      dim: -1
      dim: 1
      dim: 3
      dim: 2
    }
  }
}
layer {
  name: "pl992"
  type: "Pooling"
  bottom: "rs992"
  top: "pl992"
  pooling_param {
    pool: AVE
    kernel_h: 3
    kernel_w: 1
  }
}
layer {
  name: "ECOC_acc992"
  type: "Accuracy"
  bottom: "pl992"
  bottom: "ECOC992"
  top: "ECOC_acc992"
  accuracy_param {
    axis: 3
  }
}
layer {
  name: "rspl992"
  type: "Reshape"
  bottom: "pl992"
  top: "rspl992"
  reshape_param {
    shape {
      dim: -1
      dim: 2
    }
  }
}
layer {
  name: "Argmax992"
  type: "ArgMax"
  bottom: "rspl992"
  top: "Argmax992"
  argmax_param {
    
  }
}
layer {
  name: "ls992"
  type: "SoftmaxWithLoss"
  bottom: "rspl992"
  bottom: "ECOC992"
  top: "ls992"
}
layer {
  name: "ip993"
  type: "InnerProduct"
  bottom: "global_pool"
  top: "ip993"
  param {
    lr_mult: 1
    decay_mult: 1
  }
  param {
    lr_mult: 2
    decay_mult: 0
  }
  inner_product_param {
    num_output: 2
    weight_filler {
      type: "gaussian"
      std: 0.001
    }
    bias_filler {
      type: "constant"
      value: 0
    }
  }
}
layer {
  name: "rs993"
  type: "Reshape"
  bottom: "ip993"
  top: "rs993"
  reshape_param {
    shape {
      dim: -1
      dim: 1
      dim: 3
      dim: 2
    }
  }
}
layer {
  name: "pl993"
  type: "Pooling"
  bottom: "rs993"
  top: "pl993"
  pooling_param {
    pool: AVE
    kernel_h: 3
    kernel_w: 1
  }
}
layer {
  name: "ECOC_acc993"
  type: "Accuracy"
  bottom: "pl993"
  bottom: "ECOC993"
  top: "ECOC_acc993"
  accuracy_param {
    axis: 3
  }
}
layer {
  name: "rspl993"
  type: "Reshape"
  bottom: "pl993"
  top: "rspl993"
  reshape_param {
    shape {
      dim: -1
      dim: 2
    }
  }
}
layer {
  name: "Argmax993"
  type: "ArgMax"
  bottom: "rspl993"
  top: "Argmax993"
  argmax_param {
    
  }
}
layer {
  name: "ls993"
  type: "SoftmaxWithLoss"
  bottom: "rspl993"
  bottom: "ECOC993"
  top: "ls993"
}
layer {
  name: "ip994"
  type: "InnerProduct"
  bottom: "global_pool"
  top: "ip994"
  param {
    lr_mult: 1
    decay_mult: 1
  }
  param {
    lr_mult: 2
    decay_mult: 0
  }
  inner_product_param {
    num_output: 2
    weight_filler {
      type: "gaussian"
      std: 0.001
    }
    bias_filler {
      type: "constant"
      value: 0
    }
  }
}
layer {
  name: "rs994"
  type: "Reshape"
  bottom: "ip994"
  top: "rs994"
  reshape_param {
    shape {
      dim: -1
      dim: 1
      dim: 3
      dim: 2
    }
  }
}
layer {
  name: "pl994"
  type: "Pooling"
  bottom: "rs994"
  top: "pl994"
  pooling_param {
    pool: AVE
    kernel_h: 3
    kernel_w: 1
  }
}
layer {
  name: "ECOC_acc994"
  type: "Accuracy"
  bottom: "pl994"
  bottom: "ECOC994"
  top: "ECOC_acc994"
  accuracy_param {
    axis: 3
  }
}
layer {
  name: "rspl994"
  type: "Reshape"
  bottom: "pl994"
  top: "rspl994"
  reshape_param {
    shape {
      dim: -1
      dim: 2
    }
  }
}
layer {
  name: "Argmax994"
  type: "ArgMax"
  bottom: "rspl994"
  top: "Argmax994"
  argmax_param {
    
  }
}
layer {
  name: "ls994"
  type: "SoftmaxWithLoss"
  bottom: "rspl994"
  bottom: "ECOC994"
  top: "ls994"
}
layer {
  name: "ip995"
  type: "InnerProduct"
  bottom: "global_pool"
  top: "ip995"
  param {
    lr_mult: 1
    decay_mult: 1
  }
  param {
    lr_mult: 2
    decay_mult: 0
  }
  inner_product_param {
    num_output: 2
    weight_filler {
      type: "gaussian"
      std: 0.001
    }
    bias_filler {
      type: "constant"
      value: 0
    }
  }
}
layer {
  name: "rs995"
  type: "Reshape"
  bottom: "ip995"
  top: "rs995"
  reshape_param {
    shape {
      dim: -1
      dim: 1
      dim: 3
      dim: 2
    }
  }
}
layer {
  name: "pl995"
  type: "Pooling"
  bottom: "rs995"
  top: "pl995"
  pooling_param {
    pool: AVE
    kernel_h: 3
    kernel_w: 1
  }
}
layer {
  name: "ECOC_acc995"
  type: "Accuracy"
  bottom: "pl995"
  bottom: "ECOC995"
  top: "ECOC_acc995"
  accuracy_param {
    axis: 3
  }
}
layer {
  name: "rspl995"
  type: "Reshape"
  bottom: "pl995"
  top: "rspl995"
  reshape_param {
    shape {
      dim: -1
      dim: 2
    }
  }
}
layer {
  name: "Argmax995"
  type: "ArgMax"
  bottom: "rspl995"
  top: "Argmax995"
  argmax_param {
    
  }
}
layer {
  name: "ls995"
  type: "SoftmaxWithLoss"
  bottom: "rspl995"
  bottom: "ECOC995"
  top: "ls995"
}
layer {
  name: "ip996"
  type: "InnerProduct"
  bottom: "global_pool"
  top: "ip996"
  param {
    lr_mult: 1
    decay_mult: 1
  }
  param {
    lr_mult: 2
    decay_mult: 0
  }
  inner_product_param {
    num_output: 2
    weight_filler {
      type: "gaussian"
      std: 0.001
    }
    bias_filler {
      type: "constant"
      value: 0
    }
  }
}
layer {
  name: "rs996"
  type: "Reshape"
  bottom: "ip996"
  top: "rs996"
  reshape_param {
    shape {
      dim: -1
      dim: 1
      dim: 3
      dim: 2
    }
  }
}
layer {
  name: "pl996"
  type: "Pooling"
  bottom: "rs996"
  top: "pl996"
  pooling_param {
    pool: AVE
    kernel_h: 3
    kernel_w: 1
  }
}
layer {
  name: "ECOC_acc996"
  type: "Accuracy"
  bottom: "pl996"
  bottom: "ECOC996"
  top: "ECOC_acc996"
  accuracy_param {
    axis: 3
  }
}
layer {
  name: "rspl996"
  type: "Reshape"
  bottom: "pl996"
  top: "rspl996"
  reshape_param {
    shape {
      dim: -1
      dim: 2
    }
  }
}
layer {
  name: "Argmax996"
  type: "ArgMax"
  bottom: "rspl996"
  top: "Argmax996"
  argmax_param {
    
  }
}
layer {
  name: "ls996"
  type: "SoftmaxWithLoss"
  bottom: "rspl996"
  bottom: "ECOC996"
  top: "ls996"
}
layer {
  name: "ip997"
  type: "InnerProduct"
  bottom: "global_pool"
  top: "ip997"
  param {
    lr_mult: 1
    decay_mult: 1
  }
  param {
    lr_mult: 2
    decay_mult: 0
  }
  inner_product_param {
    num_output: 2
    weight_filler {
      type: "gaussian"
      std: 0.001
    }
    bias_filler {
      type: "constant"
      value: 0
    }
  }
}
layer {
  name: "rs997"
  type: "Reshape"
  bottom: "ip997"
  top: "rs997"
  reshape_param {
    shape {
      dim: -1
      dim: 1
      dim: 3
      dim: 2
    }
  }
}
layer {
  name: "pl997"
  type: "Pooling"
  bottom: "rs997"
  top: "pl997"
  pooling_param {
    pool: AVE
    kernel_h: 3
    kernel_w: 1
  }
}
layer {
  name: "ECOC_acc997"
  type: "Accuracy"
  bottom: "pl997"
  bottom: "ECOC997"
  top: "ECOC_acc997"
  accuracy_param {
    axis: 3
  }
}
layer {
  name: "rspl997"
  type: "Reshape"
  bottom: "pl997"
  top: "rspl997"
  reshape_param {
    shape {
      dim: -1
      dim: 2
    }
  }
}
layer {
  name: "Argmax997"
  type: "ArgMax"
  bottom: "rspl997"
  top: "Argmax997"
  argmax_param {
    
  }
}
layer {
  name: "ls997"
  type: "SoftmaxWithLoss"
  bottom: "rspl997"
  bottom: "ECOC997"
  top: "ls997"
}
layer {
  name: "ip998"
  type: "InnerProduct"
  bottom: "global_pool"
  top: "ip998"
  param {
    lr_mult: 1
    decay_mult: 1
  }
  param {
    lr_mult: 2
    decay_mult: 0
  }
  inner_product_param {
    num_output: 2
    weight_filler {
      type: "gaussian"
      std: 0.001
    }
    bias_filler {
      type: "constant"
      value: 0
    }
  }
}
layer {
  name: "rs998"
  type: "Reshape"
  bottom: "ip998"
  top: "rs998"
  reshape_param {
    shape {
      dim: -1
      dim: 1
      dim: 3
      dim: 2
    }
  }
}
layer {
  name: "pl998"
  type: "Pooling"
  bottom: "rs998"
  top: "pl998"
  pooling_param {
    pool: AVE
    kernel_h: 3
    kernel_w: 1
  }
}
layer {
  name: "ECOC_acc998"
  type: "Accuracy"
  bottom: "pl998"
  bottom: "ECOC998"
  top: "ECOC_acc998"
  accuracy_param {
    axis: 3
  }
}
layer {
  name: "rspl998"
  type: "Reshape"
  bottom: "pl998"
  top: "rspl998"
  reshape_param {
    shape {
      dim: -1
      dim: 2
    }
  }
}
layer {
  name: "Argmax998"
  type: "ArgMax"
  bottom: "rspl998"
  top: "Argmax998"
  argmax_param {
    
  }
}
layer {
  name: "ls998"
  type: "SoftmaxWithLoss"
  bottom: "rspl998"
  bottom: "ECOC998"
  top: "ls998"
}
layer {
  name: "ip999"
  type: "InnerProduct"
  bottom: "global_pool"
  top: "ip999"
  param {
    lr_mult: 1
    decay_mult: 1
  }
  param {
    lr_mult: 2
    decay_mult: 0
  }
  inner_product_param {
    num_output: 2
    weight_filler {
      type: "gaussian"
      std: 0.001
    }
    bias_filler {
      type: "constant"
      value: 0
    }
  }
}
layer {
  name: "rs999"
  type: "Reshape"
  bottom: "ip999"
  top: "rs999"
  reshape_param {
    shape {
      dim: -1
      dim: 1
      dim: 3
      dim: 2
    }
  }
}
layer {
  name: "pl999"
  type: "Pooling"
  bottom: "rs999"
  top: "pl999"
  pooling_param {
    pool: AVE
    kernel_h: 3
    kernel_w: 1
  }
}
layer {
  name: "ECOC_acc999"
  type: "Accuracy"
  bottom: "pl999"
  bottom: "ECOC999"
  top: "ECOC_acc999"
  accuracy_param {
    axis: 3
  }
}
layer {
  name: "rspl999"
  type: "Reshape"
  bottom: "pl999"
  top: "rspl999"
  reshape_param {
    shape {
      dim: -1
      dim: 2
    }
  }
}
layer {
  name: "Argmax999"
  type: "ArgMax"
  bottom: "rspl999"
  top: "Argmax999"
  argmax_param {
    
  }
}
layer {
  name: "ls999"
  type: "SoftmaxWithLoss"
  bottom: "rspl999"
  bottom: "ECOC999"
  top: "ls999"
}

layer {name:"ECOC_concat" type:"Concat" bottom:"Argmax0" bottom:"Argmax1" bottom:"Argmax2" bottom:"Argmax3" bottom:"Argmax4" bottom:"Argmax5" bottom:"Argmax6" bottom:"Argmax7" bottom:"Argmax8" bottom:"Argmax9" bottom:"Argmax10" bottom:"Argmax11" bottom:"Argmax12" bottom:"Argmax13" bottom:"Argmax14" bottom:"Argmax15" bottom:"Argmax16" bottom:"Argmax17" bottom:"Argmax18" bottom:"Argmax19" bottom:"Argmax20" bottom:"Argmax21" bottom:"Argmax22" bottom:"Argmax23" bottom:"Argmax24" bottom:"Argmax25" bottom:"Argmax26" bottom:"Argmax27" bottom:"Argmax28" bottom:"Argmax29" bottom:"Argmax30" bottom:"Argmax31" bottom:"Argmax32" bottom:"Argmax33" bottom:"Argmax34" bottom:"Argmax35" bottom:"Argmax36" bottom:"Argmax37" bottom:"Argmax38" bottom:"Argmax39" bottom:"Argmax40" bottom:"Argmax41" bottom:"Argmax42" bottom:"Argmax43" bottom:"Argmax44" bottom:"Argmax45" bottom:"Argmax46" bottom:"Argmax47" bottom:"Argmax48" bottom:"Argmax49" bottom:"Argmax50" bottom:"Argmax51" bottom:"Argmax52" bottom:"Argmax53" bottom:"Argmax54" bottom:"Argmax55" bottom:"Argmax56" bottom:"Argmax57" bottom:"Argmax58" bottom:"Argmax59" bottom:"Argmax60" bottom:"Argmax61" bottom:"Argmax62" bottom:"Argmax63" bottom:"Argmax64" bottom:"Argmax65" bottom:"Argmax66" bottom:"Argmax67" bottom:"Argmax68" bottom:"Argmax69" bottom:"Argmax70" bottom:"Argmax71" bottom:"Argmax72" bottom:"Argmax73" bottom:"Argmax74" bottom:"Argmax75" bottom:"Argmax76" bottom:"Argmax77" bottom:"Argmax78" bottom:"Argmax79" bottom:"Argmax80" bottom:"Argmax81" bottom:"Argmax82" bottom:"Argmax83" bottom:"Argmax84" bottom:"Argmax85" bottom:"Argmax86" bottom:"Argmax87" bottom:"Argmax88" bottom:"Argmax89" bottom:"Argmax90" bottom:"Argmax91" bottom:"Argmax92" bottom:"Argmax93" bottom:"Argmax94" bottom:"Argmax95" bottom:"Argmax96" bottom:"Argmax97" bottom:"Argmax98" bottom:"Argmax99" bottom:"Argmax100" bottom:"Argmax101" bottom:"Argmax102" bottom:"Argmax103" bottom:"Argmax104" bottom:"Argmax105" bottom:"Argmax106" bottom:"Argmax107" bottom:"Argmax108" bottom:"Argmax109" bottom:"Argmax110" bottom:"Argmax111" bottom:"Argmax112" bottom:"Argmax113" bottom:"Argmax114" bottom:"Argmax115" bottom:"Argmax116" bottom:"Argmax117" bottom:"Argmax118" bottom:"Argmax119" bottom:"Argmax120" bottom:"Argmax121" bottom:"Argmax122" bottom:"Argmax123" bottom:"Argmax124" bottom:"Argmax125" bottom:"Argmax126" bottom:"Argmax127" bottom:"Argmax128" bottom:"Argmax129" bottom:"Argmax130" bottom:"Argmax131" bottom:"Argmax132" bottom:"Argmax133" bottom:"Argmax134" bottom:"Argmax135" bottom:"Argmax136" bottom:"Argmax137" bottom:"Argmax138" bottom:"Argmax139" bottom:"Argmax140" bottom:"Argmax141" bottom:"Argmax142" bottom:"Argmax143" bottom:"Argmax144" bottom:"Argmax145" bottom:"Argmax146" bottom:"Argmax147" bottom:"Argmax148" bottom:"Argmax149" bottom:"Argmax150" bottom:"Argmax151" bottom:"Argmax152" bottom:"Argmax153" bottom:"Argmax154" bottom:"Argmax155" bottom:"Argmax156" bottom:"Argmax157" bottom:"Argmax158" bottom:"Argmax159" bottom:"Argmax160" bottom:"Argmax161" bottom:"Argmax162" bottom:"Argmax163" bottom:"Argmax164" bottom:"Argmax165" bottom:"Argmax166" bottom:"Argmax167" bottom:"Argmax168" bottom:"Argmax169" bottom:"Argmax170" bottom:"Argmax171" bottom:"Argmax172" bottom:"Argmax173" bottom:"Argmax174" bottom:"Argmax175" bottom:"Argmax176" bottom:"Argmax177" bottom:"Argmax178" bottom:"Argmax179" bottom:"Argmax180" bottom:"Argmax181" bottom:"Argmax182" bottom:"Argmax183" bottom:"Argmax184" bottom:"Argmax185" bottom:"Argmax186" bottom:"Argmax187" bottom:"Argmax188" bottom:"Argmax189" bottom:"Argmax190" bottom:"Argmax191" bottom:"Argmax192" bottom:"Argmax193" bottom:"Argmax194" bottom:"Argmax195" bottom:"Argmax196" bottom:"Argmax197" bottom:"Argmax198" bottom:"Argmax199" bottom:"Argmax200" bottom:"Argmax201" bottom:"Argmax202" bottom:"Argmax203" bottom:"Argmax204" bottom:"Argmax205" bottom:"Argmax206" bottom:"Argmax207" bottom:"Argmax208" bottom:"Argmax209" bottom:"Argmax210" bottom:"Argmax211" bottom:"Argmax212" bottom:"Argmax213" bottom:"Argmax214" bottom:"Argmax215" bottom:"Argmax216" bottom:"Argmax217" bottom:"Argmax218" bottom:"Argmax219" bottom:"Argmax220" bottom:"Argmax221" bottom:"Argmax222" bottom:"Argmax223" bottom:"Argmax224" bottom:"Argmax225" bottom:"Argmax226" bottom:"Argmax227" bottom:"Argmax228" bottom:"Argmax229" bottom:"Argmax230" bottom:"Argmax231" bottom:"Argmax232" bottom:"Argmax233" bottom:"Argmax234" bottom:"Argmax235" bottom:"Argmax236" bottom:"Argmax237" bottom:"Argmax238" bottom:"Argmax239" bottom:"Argmax240" bottom:"Argmax241" bottom:"Argmax242" bottom:"Argmax243" bottom:"Argmax244" bottom:"Argmax245" bottom:"Argmax246" bottom:"Argmax247" bottom:"Argmax248" bottom:"Argmax249" bottom:"Argmax250" bottom:"Argmax251" bottom:"Argmax252" bottom:"Argmax253" bottom:"Argmax254" bottom:"Argmax255" bottom:"Argmax256" bottom:"Argmax257" bottom:"Argmax258" bottom:"Argmax259" bottom:"Argmax260" bottom:"Argmax261" bottom:"Argmax262" bottom:"Argmax263" bottom:"Argmax264" bottom:"Argmax265" bottom:"Argmax266" bottom:"Argmax267" bottom:"Argmax268" bottom:"Argmax269" bottom:"Argmax270" bottom:"Argmax271" bottom:"Argmax272" bottom:"Argmax273" bottom:"Argmax274" bottom:"Argmax275" bottom:"Argmax276" bottom:"Argmax277" bottom:"Argmax278" bottom:"Argmax279" bottom:"Argmax280" bottom:"Argmax281" bottom:"Argmax282" bottom:"Argmax283" bottom:"Argmax284" bottom:"Argmax285" bottom:"Argmax286" bottom:"Argmax287" bottom:"Argmax288" bottom:"Argmax289" bottom:"Argmax290" bottom:"Argmax291" bottom:"Argmax292" bottom:"Argmax293" bottom:"Argmax294" bottom:"Argmax295" bottom:"Argmax296" bottom:"Argmax297" bottom:"Argmax298" bottom:"Argmax299" bottom:"Argmax300" bottom:"Argmax301" bottom:"Argmax302" bottom:"Argmax303" bottom:"Argmax304" bottom:"Argmax305" bottom:"Argmax306" bottom:"Argmax307" bottom:"Argmax308" bottom:"Argmax309" bottom:"Argmax310" bottom:"Argmax311" bottom:"Argmax312" bottom:"Argmax313" bottom:"Argmax314" bottom:"Argmax315" bottom:"Argmax316" bottom:"Argmax317" bottom:"Argmax318" bottom:"Argmax319" bottom:"Argmax320" bottom:"Argmax321" bottom:"Argmax322" bottom:"Argmax323" bottom:"Argmax324" bottom:"Argmax325" bottom:"Argmax326" bottom:"Argmax327" bottom:"Argmax328" bottom:"Argmax329" bottom:"Argmax330" bottom:"Argmax331" bottom:"Argmax332" bottom:"Argmax333" bottom:"Argmax334" bottom:"Argmax335" bottom:"Argmax336" bottom:"Argmax337" bottom:"Argmax338" bottom:"Argmax339" bottom:"Argmax340" bottom:"Argmax341" bottom:"Argmax342" bottom:"Argmax343" bottom:"Argmax344" bottom:"Argmax345" bottom:"Argmax346" bottom:"Argmax347" bottom:"Argmax348" bottom:"Argmax349" bottom:"Argmax350" bottom:"Argmax351" bottom:"Argmax352" bottom:"Argmax353" bottom:"Argmax354" bottom:"Argmax355" bottom:"Argmax356" bottom:"Argmax357" bottom:"Argmax358" bottom:"Argmax359" bottom:"Argmax360" bottom:"Argmax361" bottom:"Argmax362" bottom:"Argmax363" bottom:"Argmax364" bottom:"Argmax365" bottom:"Argmax366" bottom:"Argmax367" bottom:"Argmax368" bottom:"Argmax369" bottom:"Argmax370" bottom:"Argmax371" bottom:"Argmax372" bottom:"Argmax373" bottom:"Argmax374" bottom:"Argmax375" bottom:"Argmax376" bottom:"Argmax377" bottom:"Argmax378" bottom:"Argmax379" bottom:"Argmax380" bottom:"Argmax381" bottom:"Argmax382" bottom:"Argmax383" bottom:"Argmax384" bottom:"Argmax385" bottom:"Argmax386" bottom:"Argmax387" bottom:"Argmax388" bottom:"Argmax389" bottom:"Argmax390" bottom:"Argmax391" bottom:"Argmax392" bottom:"Argmax393" bottom:"Argmax394" bottom:"Argmax395" bottom:"Argmax396" bottom:"Argmax397" bottom:"Argmax398" bottom:"Argmax399" bottom:"Argmax400" bottom:"Argmax401" bottom:"Argmax402" bottom:"Argmax403" bottom:"Argmax404" bottom:"Argmax405" bottom:"Argmax406" bottom:"Argmax407" bottom:"Argmax408" bottom:"Argmax409" bottom:"Argmax410" bottom:"Argmax411" bottom:"Argmax412" bottom:"Argmax413" bottom:"Argmax414" bottom:"Argmax415" bottom:"Argmax416" bottom:"Argmax417" bottom:"Argmax418" bottom:"Argmax419" bottom:"Argmax420" bottom:"Argmax421" bottom:"Argmax422" bottom:"Argmax423" bottom:"Argmax424" bottom:"Argmax425" bottom:"Argmax426" bottom:"Argmax427" bottom:"Argmax428" bottom:"Argmax429" bottom:"Argmax430" bottom:"Argmax431" bottom:"Argmax432" bottom:"Argmax433" bottom:"Argmax434" bottom:"Argmax435" bottom:"Argmax436" bottom:"Argmax437" bottom:"Argmax438" bottom:"Argmax439" bottom:"Argmax440" bottom:"Argmax441" bottom:"Argmax442" bottom:"Argmax443" bottom:"Argmax444" bottom:"Argmax445" bottom:"Argmax446" bottom:"Argmax447" bottom:"Argmax448" bottom:"Argmax449" bottom:"Argmax450" bottom:"Argmax451" bottom:"Argmax452" bottom:"Argmax453" bottom:"Argmax454" bottom:"Argmax455" bottom:"Argmax456" bottom:"Argmax457" bottom:"Argmax458" bottom:"Argmax459" bottom:"Argmax460" bottom:"Argmax461" bottom:"Argmax462" bottom:"Argmax463" bottom:"Argmax464" bottom:"Argmax465" bottom:"Argmax466" bottom:"Argmax467" bottom:"Argmax468" bottom:"Argmax469" bottom:"Argmax470" bottom:"Argmax471" bottom:"Argmax472" bottom:"Argmax473" bottom:"Argmax474" bottom:"Argmax475" bottom:"Argmax476" bottom:"Argmax477" bottom:"Argmax478" bottom:"Argmax479" bottom:"Argmax480" bottom:"Argmax481" bottom:"Argmax482" bottom:"Argmax483" bottom:"Argmax484" bottom:"Argmax485" bottom:"Argmax486" bottom:"Argmax487" bottom:"Argmax488" bottom:"Argmax489" bottom:"Argmax490" bottom:"Argmax491" bottom:"Argmax492" bottom:"Argmax493" bottom:"Argmax494" bottom:"Argmax495" bottom:"Argmax496" bottom:"Argmax497" bottom:"Argmax498" bottom:"Argmax499" bottom:"Argmax500" bottom:"Argmax501" bottom:"Argmax502" bottom:"Argmax503" bottom:"Argmax504" bottom:"Argmax505" bottom:"Argmax506" bottom:"Argmax507" bottom:"Argmax508" bottom:"Argmax509" bottom:"Argmax510" bottom:"Argmax511" bottom:"Argmax512" bottom:"Argmax513" bottom:"Argmax514" bottom:"Argmax515" bottom:"Argmax516" bottom:"Argmax517" bottom:"Argmax518" bottom:"Argmax519" bottom:"Argmax520" bottom:"Argmax521" bottom:"Argmax522" bottom:"Argmax523" bottom:"Argmax524" bottom:"Argmax525" bottom:"Argmax526" bottom:"Argmax527" bottom:"Argmax528" bottom:"Argmax529" bottom:"Argmax530" bottom:"Argmax531" bottom:"Argmax532" bottom:"Argmax533" bottom:"Argmax534" bottom:"Argmax535" bottom:"Argmax536" bottom:"Argmax537" bottom:"Argmax538" bottom:"Argmax539" bottom:"Argmax540" bottom:"Argmax541" bottom:"Argmax542" bottom:"Argmax543" bottom:"Argmax544" bottom:"Argmax545" bottom:"Argmax546" bottom:"Argmax547" bottom:"Argmax548" bottom:"Argmax549" bottom:"Argmax550" bottom:"Argmax551" bottom:"Argmax552" bottom:"Argmax553" bottom:"Argmax554" bottom:"Argmax555" bottom:"Argmax556" bottom:"Argmax557" bottom:"Argmax558" bottom:"Argmax559" bottom:"Argmax560" bottom:"Argmax561" bottom:"Argmax562" bottom:"Argmax563" bottom:"Argmax564" bottom:"Argmax565" bottom:"Argmax566" bottom:"Argmax567" bottom:"Argmax568" bottom:"Argmax569" bottom:"Argmax570" bottom:"Argmax571" bottom:"Argmax572" bottom:"Argmax573" bottom:"Argmax574" bottom:"Argmax575" bottom:"Argmax576" bottom:"Argmax577" bottom:"Argmax578" bottom:"Argmax579" bottom:"Argmax580" bottom:"Argmax581" bottom:"Argmax582" bottom:"Argmax583" bottom:"Argmax584" bottom:"Argmax585" bottom:"Argmax586" bottom:"Argmax587" bottom:"Argmax588" bottom:"Argmax589" bottom:"Argmax590" bottom:"Argmax591" bottom:"Argmax592" bottom:"Argmax593" bottom:"Argmax594" bottom:"Argmax595" bottom:"Argmax596" bottom:"Argmax597" bottom:"Argmax598" bottom:"Argmax599" bottom:"Argmax600" bottom:"Argmax601" bottom:"Argmax602" bottom:"Argmax603" bottom:"Argmax604" bottom:"Argmax605" bottom:"Argmax606" bottom:"Argmax607" bottom:"Argmax608" bottom:"Argmax609" bottom:"Argmax610" bottom:"Argmax611" bottom:"Argmax612" bottom:"Argmax613" bottom:"Argmax614" bottom:"Argmax615" bottom:"Argmax616" bottom:"Argmax617" bottom:"Argmax618" bottom:"Argmax619" bottom:"Argmax620" bottom:"Argmax621" bottom:"Argmax622" bottom:"Argmax623" bottom:"Argmax624" bottom:"Argmax625" bottom:"Argmax626" bottom:"Argmax627" bottom:"Argmax628" bottom:"Argmax629" bottom:"Argmax630" bottom:"Argmax631" bottom:"Argmax632" bottom:"Argmax633" bottom:"Argmax634" bottom:"Argmax635" bottom:"Argmax636" bottom:"Argmax637" bottom:"Argmax638" bottom:"Argmax639" bottom:"Argmax640" bottom:"Argmax641" bottom:"Argmax642" bottom:"Argmax643" bottom:"Argmax644" bottom:"Argmax645" bottom:"Argmax646" bottom:"Argmax647" bottom:"Argmax648" bottom:"Argmax649" bottom:"Argmax650" bottom:"Argmax651" bottom:"Argmax652" bottom:"Argmax653" bottom:"Argmax654" bottom:"Argmax655" bottom:"Argmax656" bottom:"Argmax657" bottom:"Argmax658" bottom:"Argmax659" bottom:"Argmax660" bottom:"Argmax661" bottom:"Argmax662" bottom:"Argmax663" bottom:"Argmax664" bottom:"Argmax665" bottom:"Argmax666" bottom:"Argmax667" bottom:"Argmax668" bottom:"Argmax669" bottom:"Argmax670" bottom:"Argmax671" bottom:"Argmax672" bottom:"Argmax673" bottom:"Argmax674" bottom:"Argmax675" bottom:"Argmax676" bottom:"Argmax677" bottom:"Argmax678" bottom:"Argmax679" bottom:"Argmax680" bottom:"Argmax681" bottom:"Argmax682" bottom:"Argmax683" bottom:"Argmax684" bottom:"Argmax685" bottom:"Argmax686" bottom:"Argmax687" bottom:"Argmax688" bottom:"Argmax689" bottom:"Argmax690" bottom:"Argmax691" bottom:"Argmax692" bottom:"Argmax693" bottom:"Argmax694" bottom:"Argmax695" bottom:"Argmax696" bottom:"Argmax697" bottom:"Argmax698" bottom:"Argmax699" bottom:"Argmax700" bottom:"Argmax701" bottom:"Argmax702" bottom:"Argmax703" bottom:"Argmax704" bottom:"Argmax705" bottom:"Argmax706" bottom:"Argmax707" bottom:"Argmax708" bottom:"Argmax709" bottom:"Argmax710" bottom:"Argmax711" bottom:"Argmax712" bottom:"Argmax713" bottom:"Argmax714" bottom:"Argmax715" bottom:"Argmax716" bottom:"Argmax717" bottom:"Argmax718" bottom:"Argmax719" bottom:"Argmax720" bottom:"Argmax721" bottom:"Argmax722" bottom:"Argmax723" bottom:"Argmax724" bottom:"Argmax725" bottom:"Argmax726" bottom:"Argmax727" bottom:"Argmax728" bottom:"Argmax729" bottom:"Argmax730" bottom:"Argmax731" bottom:"Argmax732" bottom:"Argmax733" bottom:"Argmax734" bottom:"Argmax735" bottom:"Argmax736" bottom:"Argmax737" bottom:"Argmax738" bottom:"Argmax739" bottom:"Argmax740" bottom:"Argmax741" bottom:"Argmax742" bottom:"Argmax743" bottom:"Argmax744" bottom:"Argmax745" bottom:"Argmax746" bottom:"Argmax747" bottom:"Argmax748" bottom:"Argmax749" bottom:"Argmax750" bottom:"Argmax751" bottom:"Argmax752" bottom:"Argmax753" bottom:"Argmax754" bottom:"Argmax755" bottom:"Argmax756" bottom:"Argmax757" bottom:"Argmax758" bottom:"Argmax759" bottom:"Argmax760" bottom:"Argmax761" bottom:"Argmax762" bottom:"Argmax763" bottom:"Argmax764" bottom:"Argmax765" bottom:"Argmax766" bottom:"Argmax767" bottom:"Argmax768" bottom:"Argmax769" bottom:"Argmax770" bottom:"Argmax771" bottom:"Argmax772" bottom:"Argmax773" bottom:"Argmax774" bottom:"Argmax775" bottom:"Argmax776" bottom:"Argmax777" bottom:"Argmax778" bottom:"Argmax779" bottom:"Argmax780" bottom:"Argmax781" bottom:"Argmax782" bottom:"Argmax783" bottom:"Argmax784" bottom:"Argmax785" bottom:"Argmax786" bottom:"Argmax787" bottom:"Argmax788" bottom:"Argmax789" bottom:"Argmax790" bottom:"Argmax791" bottom:"Argmax792" bottom:"Argmax793" bottom:"Argmax794" bottom:"Argmax795" bottom:"Argmax796" bottom:"Argmax797" bottom:"Argmax798" bottom:"Argmax799" bottom:"Argmax800" bottom:"Argmax801" bottom:"Argmax802" bottom:"Argmax803" bottom:"Argmax804" bottom:"Argmax805" bottom:"Argmax806" bottom:"Argmax807" bottom:"Argmax808" bottom:"Argmax809" bottom:"Argmax810" bottom:"Argmax811" bottom:"Argmax812" bottom:"Argmax813" bottom:"Argmax814" bottom:"Argmax815" bottom:"Argmax816" bottom:"Argmax817" bottom:"Argmax818" bottom:"Argmax819" bottom:"Argmax820" bottom:"Argmax821" bottom:"Argmax822" bottom:"Argmax823" bottom:"Argmax824" bottom:"Argmax825" bottom:"Argmax826" bottom:"Argmax827" bottom:"Argmax828" bottom:"Argmax829" bottom:"Argmax830" bottom:"Argmax831" bottom:"Argmax832" bottom:"Argmax833" bottom:"Argmax834" bottom:"Argmax835" bottom:"Argmax836" bottom:"Argmax837" bottom:"Argmax838" bottom:"Argmax839" bottom:"Argmax840" bottom:"Argmax841" bottom:"Argmax842" bottom:"Argmax843" bottom:"Argmax844" bottom:"Argmax845" bottom:"Argmax846" bottom:"Argmax847" bottom:"Argmax848" bottom:"Argmax849" bottom:"Argmax850" bottom:"Argmax851" bottom:"Argmax852" bottom:"Argmax853" bottom:"Argmax854" bottom:"Argmax855" bottom:"Argmax856" bottom:"Argmax857" bottom:"Argmax858" bottom:"Argmax859" bottom:"Argmax860" bottom:"Argmax861" bottom:"Argmax862" bottom:"Argmax863" bottom:"Argmax864" bottom:"Argmax865" bottom:"Argmax866" bottom:"Argmax867" bottom:"Argmax868" bottom:"Argmax869" bottom:"Argmax870" bottom:"Argmax871" bottom:"Argmax872" bottom:"Argmax873" bottom:"Argmax874" bottom:"Argmax875" bottom:"Argmax876" bottom:"Argmax877" bottom:"Argmax878" bottom:"Argmax879" bottom:"Argmax880" bottom:"Argmax881" bottom:"Argmax882" bottom:"Argmax883" bottom:"Argmax884" bottom:"Argmax885" bottom:"Argmax886" bottom:"Argmax887" bottom:"Argmax888" bottom:"Argmax889" bottom:"Argmax890" bottom:"Argmax891" bottom:"Argmax892" bottom:"Argmax893" bottom:"Argmax894" bottom:"Argmax895" bottom:"Argmax896" bottom:"Argmax897" bottom:"Argmax898" bottom:"Argmax899" bottom:"Argmax900" bottom:"Argmax901" bottom:"Argmax902" bottom:"Argmax903" bottom:"Argmax904" bottom:"Argmax905" bottom:"Argmax906" bottom:"Argmax907" bottom:"Argmax908" bottom:"Argmax909" bottom:"Argmax910" bottom:"Argmax911" bottom:"Argmax912" bottom:"Argmax913" bottom:"Argmax914" bottom:"Argmax915" bottom:"Argmax916" bottom:"Argmax917" bottom:"Argmax918" bottom:"Argmax919" bottom:"Argmax920" bottom:"Argmax921" bottom:"Argmax922" bottom:"Argmax923" bottom:"Argmax924" bottom:"Argmax925" bottom:"Argmax926" bottom:"Argmax927" bottom:"Argmax928" bottom:"Argmax929" bottom:"Argmax930" bottom:"Argmax931" bottom:"Argmax932" bottom:"Argmax933" bottom:"Argmax934" bottom:"Argmax935" bottom:"Argmax936" bottom:"Argmax937" bottom:"Argmax938" bottom:"Argmax939" bottom:"Argmax940" bottom:"Argmax941" bottom:"Argmax942" bottom:"Argmax943" bottom:"Argmax944" bottom:"Argmax945" bottom:"Argmax946" bottom:"Argmax947" bottom:"Argmax948" bottom:"Argmax949" bottom:"Argmax950" bottom:"Argmax951" bottom:"Argmax952" bottom:"Argmax953" bottom:"Argmax954" bottom:"Argmax955" bottom:"Argmax956" bottom:"Argmax957" bottom:"Argmax958" bottom:"Argmax959" bottom:"Argmax960" bottom:"Argmax961" bottom:"Argmax962" bottom:"Argmax963" bottom:"Argmax964" bottom:"Argmax965" bottom:"Argmax966" bottom:"Argmax967" bottom:"Argmax968" bottom:"Argmax969" bottom:"Argmax970" bottom:"Argmax971" bottom:"Argmax972" bottom:"Argmax973" bottom:"Argmax974" bottom:"Argmax975" bottom:"Argmax976" bottom:"Argmax977" bottom:"Argmax978" bottom:"Argmax979" bottom:"Argmax980" bottom:"Argmax981" bottom:"Argmax982" bottom:"Argmax983" bottom:"Argmax984" bottom:"Argmax985" bottom:"Argmax986" bottom:"Argmax987" bottom:"Argmax988" bottom:"Argmax989" bottom:"Argmax990" bottom:"Argmax991" bottom:"Argmax992" bottom:"Argmax993" bottom:"Argmax994" bottom:"Argmax995" bottom:"Argmax996" bottom:"Argmax997" bottom:"Argmax998" bottom:"Argmax999"  top:"ECOC_concat",concat_param{axis:1}}
layer{name:"ECOC_concat_rs" bottom:"ECOC_concat" top:"ECOC_concat_rs" type:"Reshape" reshape_param{shape {dim:-1 dim:1000}}}
layer {name: "ECOC_Accuracy" type:"Python" bottom:"ECOC_concat_rs" bottom: "label"top:"ECOC_Accuracy" python_param {module:'ECOC_Output_v1' layer:  'ECOC_OutputLayer' param_str : "{\'num_Cls\':1000}"}}


